Results/ancien/BaselineExp/best_model.pt (torch, 130790 bytes, 6 tensors)

conv1.weight f4 [32, 3, 5, 5]
-0.09414737 0.058948386 0.06356039 -0.045016948 -0.015596987 0.104695275 -0.023680488 0.123527944
0.04754545 0.05113459 0.081136614 -0.014766593 0.064090386 0.074361935 0.099672146 0.114971705
0.13725011 -0.08427072 0.052893154 0.02066044 -0.028852759 0.11292546 -0.08884411 -0.0461833
0.11487882 -0.10463633 0.044217758 0.02527843 -0.008122118 0.06950018 0.08703711 0.0176704
0.0117421495 0.08500276 -0.100269616 -0.08662703 -0.015876915 -0.12063265 0.05387227 -0.13230887
-0.11757995 -0.12084204 -0.07715739 0.019255243 0.033770364 0.022912888 -0.12566772 -0.03777473
-0.05874208 -0.13077179 0.0868341 -0.056359038 -0.025623249 0.04559364 0.08692856 0.08407472
0.06714596 -0.10131389 -0.08404418 -0.029163586 -0.042260084 0.073465295 -0.09622986 -0.06601557
-0.08753303 0.0009795257 -0.09224079 0.045654412 0.0045767077 -0.12429889 0.027528295 0.045118466
-0.030390013 0.05966254 -0.04617301 -0.13693006 0.018143972 0.07685757 -0.1185585 -0.05100895
0.036260057 0.08905777 0.07876506 0.067041665 -0.09905828 -0.0384822 -0.080257066 -0.12695822
0.08640787 0.014767086 -0.0010083759 0.032216124 -0.03443736 -0.10301619 0.018150078 -0.036991507
0.021763168 -0.0011982399 0.08372978 -0.0883739 -0.05435516 -0.09683388 0.054319546 0.13089679
0.12927043 0.098626375 -0.08303126 0.08001092 -0.020104803 0.12889403 0.10538781 -0.089490846
0.0018848355 0.0015281108 -0.014283385 0.067027785 0.0045883437 -0.019058725 0.07839157 0.0666299
0.058004886 0.018808587 0.0104348445 0.13576095 0.07306564 -0.10168671 0.088203065 -0.11307758
-0.032146133 -0.04493811 -0.10758076 -0.08739406 0.01915134 0.09574962 0.06379253 0.06553134
-0.10760606 0.06967671 0.10271241 0.1123333 -0.07964179 -0.052702136 -0.08768617 -0.09152054
-0.009459127 -0.10990195 0.017449584 0.061927944 -0.041804846 0.031266756 0.0062932908 0.069369376
0.07859775 0.1252497 -0.03031122 -0.07311364 0.048984617 0.051753532 0.02554952 -0.036558826
0.08957128 0.08274899 0.035832934 0.03514555 -0.008508898 0.033542942 0.010109774 -0.09704656
-0.0032555466 -0.058717206 -0.08406465 0.04930721 -0.005449741 0.0063448707 0.10126036 0.05664607
0.0953004 -0.074475415 -0.020523878 -0.0846105 0.031867962 0.026955293 0.09430993 0.063793935
-0.08092505 -0.04912886 0.08441493 -0.09772818 -0.023810681 0.08364076 -0.007082286 0.11671585
-0.04356273 -0.014300914 -0.11714211 -0.005195016 0.059549853 0.008084423 -0.028439952 -0.11452725
0.07652541 -0.040713876 -0.004603712 0.049403157 0.045137305 0.07798565 0.024641458 0.057303756
0.027787404 -0.06478701 0.019853711 0.00791528 -0.07145845 0.013607973 -0.14421767 -0.0565398
-0.044370886 -0.11442292 -0.14137147 0.07393454 -0.078672044 0.016152238 -0.01985269 0.0031336262
0.022562785 -0.0021481586 0.08608213 -0.050838143 -0.051617913 -0.049504757 0.07433279 0.07481782
0.011136463 -0.09337816 -0.1166285 0.035231717 -0.11053612 -0.06712001 0.010398746 0.024032664
-0.11133863 0.02476041 0.004549011 -0.058365315 0.094715774 0.07242159 -0.058601014 -0.110525236
0.094600566 0.09417321 0.0005767874 0.08981811 0.10051287 0.010977148 0.09913109 0.027017713
00000000: 56d0 c0bd dd73 713d f32b 823d b163 38bd
00000010: 818a 7fbc 7a6a d63d 95fd c1bc 38fc fc3d
00000020: 05bf 423d 8172 513d f42a a63d 95ef 71bc
00000030: d241 833d 124b 983d e920 cc3d 4976 eb3d
00000040: 4b8b 0c3e 2196 acbd 7ea6 583d 1540 a93c
00000050: 9f5c ecbc 7745 e73d e7f3 b5bd b32a 3dbd
00000060: 9645 eb3d 924b d6bd ae1d 353d b614 cf3c
00000070: a212 05bc 1c56 8e3d 8340 b23d 84c1 903c
00000080: 2562 403c ed15 ae3d 285a cdbd 8369 b1bd
00000090: 4e10 82bc 400e f7bd 2ba9 5c3d fa7b 07be
000000a0: c2cd f0bd 087c f7bd b204 9ebd 2cbd 9d3c
000000b0: cb52 0a3d cfb3 bb3c 0aaf 00be adb9 1abd
000000c0: 899b 70bd 0ae9 05be 14d6 b13d bcd8 66bd
000000d0: d9e7 d1bc 66c0 3a3d 9a07 b23d 5e2f ac3d
000000e0: d283 893d a87d cfbd 5b1f acbd 79e8 eebc
000000f0: e918 2dbd f974 963d 2914 c5bd 2c33 87bd
00000100: 8444 b3bd 6e63 803a bde8 bcbd 1f00 3b3d
00000110: 35f8 953b 6b90 febd 0583 e13c 24ce 383d
00000120: 7af4 f8bc b560 743d e91f 3dbd 6537 0cbe
00000130: aba2 943c 8067 9d3d cdce f2bd c3ee 50bd
00000140: 6d85 143d ec63 b63d 934f a13d 244d 893d
00000150: 11df cabd 839f 1dbd d15d a4bd 5601 02be
00000160: 9cf6 b03d a6f1 713c 7b2b 84ba 0ef5 033d
00000170: 300e 0dbd 27fa d2bd 79af 943c 6884 17bd
00000180: ac48 b23c 420e 9dba 857a ab3d 60fd b4bd
00000190: 84a3 5ebd d750 c6bd 2c7e 5e3d cf09 063e
000001a0: 785f 043e a0fc c93d 4b0c aabd c4dc a33d
000001b0: d4b2 a4bc ccfc 033e 90d5 d73d fa46 b7bd
000001c0: 960c f73a e44a c83a dc04 6abc dd45 893d
000001d0: d159 963b 0b21 9cbc c28b a03d 4275 883d
000001e0: 8896 6d3d 7714 9a3c e9f6 2a3c eb04 0b3e
000001f0: 70a3 953d 1f41 d0bd cfa3 b43d 3895 e7bd
00000200: aaab 03bd 0611 38bd 4d53 dcbd a8fb b2bd
00000210: 45e3 9c3c 6018 c43d a8a5 823d 4c35 863d
00000220: 9160 dcbd aab2 8e3d e25a d23d 000f e63d
00000230: 3c1b a3bd 32de 57bd cf94 b3bd 1f6f bbbd
00000240: 74fa 1abc 4614 e1bd 6ef2 8e3c 28a8 7d3d
00000250: 8f3b 2bbd 9211 003d f337 ce3b 8811 8e3d
00000260: dbf7 a03d 7541 003e 3c4f f8bc 9bbc 95bd
00000270: 18a4 483d 83fb 533d 3a4d d13c b5be 15bd
00000280: 2671 b73d 4d78 a93d 8ec5 123d c8f4 0f3d
00000290: e868 0bbc 5364 093d 77a3 253c 59c0 c6bd
000002a0: 025b 55bb 7481 70bd 162a acbd 5bf6 493d
000002b0: be93 b2bb a2e8 cf3b 9761 cf3d b605 683d
000002c0: db2c c33d 9186 98bd b121 a8bc 4548 adbd
000002d0: fb87 023d 59d1 dc3c 9125 c13d 65a6 823d
000002e0: 08bc a5bd 583b 49bd bce1 ac3d b625 c8bd
000002f0: 9e0e c3bc d94b ab3d 8512 e8bb b808 ef3d
00000300: d56e 32bd 614e 6abc 34e8 efbd f43a aabb
00000310: 8cea 733d 8774 043c e7fa e8bc 438d eabd
00000320: 5bb9 9c3d 98c3 26bd bcda 96bb f75a 4a3d
00000330: e5e1 383d f1b6 9f3d e2dc c93c 58b7 6a3d
00000340: 69a2 e33c 0daf 84bd 40a4 a23c 17af 013c
00000350: cf58 92bd faf3 5e3c ccad 13be 4796 67bd
00000360: 3fbe 35bd 9056 eabd afc3 10be fe6a 973d
00000370: cf1e a1bd b351 843c 1ca2 a2bc 865d 4d3b
00000380: 97d5 b83c 1fc8 0cbb d44b b03d a83b 50bd
00000390: 4e6d 53bd 80c5 4abd ca3b 983d 163a 993d
000003a0: b675 363c 0c3d bfbd ecda eebd 224f 103d
000003b0: c360 e2bd 3776 89bd 805f 2a3c 26e0 c43c
000003c0: 8205 e4bd 58d6 ca3c df0f 953b 7810 6fbd
000003d0: 58fa c13d c551 943d 9e07 70bd 0e5b e2bd
000003e0: f1bd c13d e2dd c03d 8c33 173a 8ff2 b73d
000003f0: b1d9 cd3d 7fd9 333c 3e05 cb3d 4054 dd3c

conv1.bias f4 [32]
0.09827185 -0.07579417 -0.028142719 -0.14330319 -0.07435137 0.090786025 -0.075105034 0.09474742
-0.007098236 -0.18308018 0.08683926 -0.076156296 0.011759705 -0.098249905 -0.056659233 0.107443556
0.09518858 0.022422371 -0.18897411 -0.02251135 -0.06705452 -0.12965171 0.088486485 -0.05917572
-0.044334713 0.030444155 -0.05685233 0.051049147 0.13711002 0.12180051 -0.10695837 0.11750298
00000000: c042 c93d f939 9bbd 8f8b e6bc 12be 12be
00000010: 8845 98bd 06ee b93d abd0 99bd ef0a c23d
00000020: 5298 e8bb 5f79 3bbe c8d8 b13d d5f7 9bbd
00000030: c7ab 403c 3f37 c9bd 8313 68bd 5e0b dc3d
00000040: 3bf2 c23d 1faf b73c 6e82 41be b969 b8bc
00000050: e153 89bd 6bc3 04be 6738 b53d 3d62 72bd
00000060: 5198 35bd 0566 f93c fddd 68bd e918 513d
00000070: 9266 0c3e 8c72 f93d fd0c dbbd 67a5 f03d

conv2.weight f4 [32, 32, 5, 5]
0.036128484 0.044025093 -0.007256536 0.038816374 0.015646474 0.004365623 -0.0021044165 0.00013888533
-0.0009120457 -0.023127174 -0.0072322236 0.027823037 -0.003430942 -0.026344847 0.02319257 -0.017711531
-0.018129852 0.00080301624 -0.0033582137 -0.029064706 -0.010737333 -0.021589823 -0.023348883 0.007875499
-0.00999407 -0.01026853 0.011907388 0.016883204 -0.04700961 0.0012284612 0.0046264976 -0.010877046
-0.031786006 -0.017456062 -0.009947354 -0.0333871 -0.028858472 -0.007951468 -0.0055233496 -0.0090760365
-0.034273677 -0.029734595 -0.0015566336 -0.0030269367 0.019212106 0.008654149 -0.0057232054 0.0151982205
-0.0051824213 0.031037847 0.04673291 0.04299542 0.03332434 -0.009884659 0.005683661 0.0288965
0.009973275 -0.029453002 -0.01603227 -0.015878227 0.0130427275 -0.02550388 -0.004002228 0.0023259122
-0.042538125 0.029740728 0.012653375 -0.005234307 -0.016274896 -0.029658573 -0.009922995 -0.034504253
-0.03533969 -0.017841004 -0.056249876 0.017712934 0.041095775 0.009787213 0.01178577 0.016509628
0.005869926 -0.023617903 -0.02154701 0.023869969 -0.034923356 -0.0049048974 -0.00856824 -0.010157058
-0.0323877 0.011350713 0.016306786 -0.009074156 0.014085481 -0.006836536 -0.0108646555 -0.016781405
0.0065972693 -0.036334652 -0.004070902 -0.034520168 -0.00076188234 0.00042051912 -0.009307194 -0.038484197
-0.008944664 0.0054106535 -0.012779774 -0.036568824 -0.03531302 -0.051314354 -0.024197988 -0.022626134
-0.021488339 -0.03886085 -0.021335492 -0.022227876 -0.007139964 -0.0450832 -0.043557305 -0.020895703
-0.059953835 -0.028440956 -0.018938787 -0.023899412 -0.06489451 -0.082826346 -0.06629076 -0.01432973
-0.022837812 -0.060194325 -0.040905528 0.007075464 -0.014223232 0.0035905796 -0.037713386 0.017849764
0.027576415 -0.023724174 0.005633631 -0.03328837 0.00062598375 -0.0033393803 -0.032709043 -0.034600474
-0.063151285 -0.03142695 -0.040101618 -0.020585172 -0.024194693 -0.07394901 0.08800922 0.06861024
0.09234522 0.08062929 0.06400498 0.08727498 0.09926279 0.10532338 0.06368696 0.066453815
0.06825668 0.09056152 0.0756974 0.110001415 0.07755147 0.058215525 0.060615573 0.061442006
0.103884265 0.07938548 0.052119773 0.08672807 0.058759093 0.061128445 0.11287513 0.04367992
0.07178982 0.088882774 0.046790242 0.014379348 0.027646758 0.022689333 0.0740805 0.053227358
0.030405091 0.07444414 0.053466655 0.020842971 0.04020313 0.0015179564 0.049796484 0.022667019
0.04492922 0.042453203 -0.0030574123 0.015150927 0.004049115 0.032534033 -0.007731883 0.0046069645
-0.036359165 -0.021824187 0.010790735 -0.0070469677 -0.052242324 0.00034926046 -0.01656871 -0.0063599506
-0.044824358 -0.022618117 -0.016149973 -0.0008141535 -0.02516359 0.0002761676 -0.004609207 -0.010143129
0.0051492085 -0.027656673 -0.039007064 -0.040075414 -0.003421846 -0.0070890365 -6.36726e-05 -0.0388326
-0.05798277 -0.024028229 -0.018147053 -0.017939348 -0.046472635 -0.043883093 -0.026901668 -0.014746677
-0.022135198 -0.0407707 -0.052851435 -0.05062905 -0.029921105 -0.00020904971 -0.042363413 -0.041764848
-0.041276317 -0.037829064 -0.036675088 -0.030321408 -0.0673326 -0.0433037 -0.030273644 -0.022303918
-0.05866011 -0.049338974 -0.1823539 -0.17181776 -0.14682762 -0.1437798 -0.13234684 -0.1517606
00000000: 76fb 133d a853 343d 3cc8 edbb ebfd 1e3d
00000010: 092d 803c 800d 8f3b 40ea 09bb bfa1 1139
00000020: 5a16 6fba 3375 bdbc 4afc ecbb 23ed e33c
00000030: a8d9 60bb 26d1 d7bc 58fe bd3c c617 91bc
00000040: 0e85 94bc 8281 523a 7a15 5cbb 1b19 eebc
00000050: a4eb 2fbc 24dd b0bc 2846 bfbc 3d08 013c
00000060: 2bbe 23bc 563d 28bc 3517 433c a54e 8a3c
00000070: 268d 40bd 5104 a13a e099 973b a335 32bc
00000080: 0b32 02bd 0400 8fbc 3afa 22bc e9c0 08bd
00000090: 9a68 ecbc e046 02bc 37fd b4bb a8b3 14bc
000000a0: 8e62 0cbd f795 f3bc f507 ccba 925f 46bb
000000b0: b562 9d3c 22ca 0d3c ba89 bbbb f501 793c
000000c0: 4dd1 a9bb 1543 fe3c 026b 3f3d f71b 303d
000000d0: 1a7f 083d 44f3 21bc 013e ba3b 5ab8 ec3c
000000e0: f266 233c 6c47 f1bc 1b56 83bc 0e13 82bc
000000f0: 2ab1 553c 83ed d0bc 1f25 83bb 556e 183b
00000100: 753c 2ebd d4a2 f33c 1a50 4f3c 8d84 abbb
00000110: ee52 85bc 89f6 f2bc 0f94 22bc 5554 0dbd
00000120: 5ac0 10bd 4c27 92bc 4566 66bd b71a 913c
00000130: 0b54 283d 8c5a 203c 1a19 413c 333f 873c
00000140: 8258 c03b 557a c1bc 5b83 b0bc f48a c33c
00000150: cb0b 0fbd 43b9 a0bb ce61 0cbc ca69 26bc
00000160: f7a8 04bd 57f8 393c cf95 853c c5ab 14bc
00000170: cac6 663c 0505 e0bb ab01 32bc 2879 89bc
00000180: e82d d83b a5d3 14bd 3365 85bb 0565 0dbd
00000190: 0fb9 47ba 1f79 dc39 337d 18bc 9ba1 1dbd
000001a0: a48c 12bc da4b b13b 4262 51bc 31c9 15bd
000001b0: 63a4 10bd 002f 52bd dc3a c6bc 715a b9bc
000001c0: 5008 b0bc 8e2c 1fbd c5c7 aebc 3c17 b6bc
000001d0: 5cf6 e9bb 29a9 38bd 2569 32bd 772d abbc
000001e0: 2792 75bd 02fd e8bc 8425 9bbc b3c8 c3bc
000001f0: 6ae7 84bd dca0 a9bd 73c3 87bd 3ec7 6abc
00000200: 5d16 bbbc 538e 76bd 8e8c 27bd 4bd9 e73b
00000210: 8f08 69bc ee4f 6b3b 5a79 1abd ab39 923c
00000220: efe7 e13c 3359 c2bc 529a b83b 6359 08bd
00000230: 0f19 243a 81d9 5abb ebf9 05bd 3ab9 0dbd
00000240: 7655 81bd 8cb9 00bd 9841 24bd 3ca2 a8bc
00000250: f333 c6bc 9472 97bd 2e3e b43d 8783 8c3d
00000260: 7e1f bd3d f820 a53d 0b15 833d 3abd b23d
00000270: 4a4a cb3d c9b3 d73d 4f6e 823d f018 883d
00000280: 29ca 8b3d 5178 b93d 3d07 9b3d 6c48 e13d
00000290: 4ed3 9e3d 6773 6e3d 0948 783d 9daa 7b3d
000002a0: 46c1 d43d db94 a23d 8b7b 553d 7d9e b13d
000002b0: 60ad 703d d261 7a3d 132b e73d b7e9 323d
000002c0: 8b06 933d 2c08 b63d 20a7 3f3d 5b97 6b3c
000002d0: 747b e23c fbde b93c 84b7 973d ee04 5a3d
000002e0: 1914 f93c 2b76 983d daff 5a3d e1be aa3c
000002f0: 0aac 243d 2af6 c63a 66f7 4b3d 2fb0 b93c
00000300: b407 383d 69e3 2d3d de5e 48bb 983b 783c
00000310: 70ae 843b 6842 053d bc5b fdbb 05f6 963b
00000320: 59ed 14bd a3c8 b2bc 9fcb 303c 40ea e6bb
00000330: 0cfc 55bd f21c b739 1abb 87bc 2267 d0bb
00000340: bf99 37bd a149 b9bc f34c 84bc eb6c 55ba
00000350: e023 cebc 96ca 9039 d508 97bb 5e2f 26bc
00000360: b1ba a83b 3f90 e2bc dfc5 1fbd 1e26 24bd
00000370: 0d41 60bb 264b e8bb f887 85b8 ef0e 1fbd
00000380: 577f 6dbd d9d6 c4bc 21a9 94bc 8af5 92bc
00000390: 175a 3ebd c2be 33bd e360 dcbc 0c9c 71bc
000003a0: e054 b5bc 2dff 26bd bf7a 58bd 6860 4fbd
000003b0: 1b1d f5bc 5b34 5bb9 4285 2dbd 9e11 2bbd
000003c0: 5b11 29bd a6f2 1abd 9e38 16bd 9a64 f8bc
000003d0: ade5 89bd 385f 31bd 6f00 f8bc b5b6 b6bc
000003e0: 9545 70bd aa17 4abd fbba 3abe fff0 2fbe
000003f0: fb59 16be 033b 13be ee85 07be 2167 1bbe

conv2.bias f4 [32]
0.05405227 0.06149455 0.007047294 0.022608351 -0.036446765 0.053763885 0.021054707 0.037890367
-0.0076551815 -0.059100382 -0.018668868 -0.03441028 0.0105298385 0.098213896 -0.063616954 0.028160375
-0.0046475143 0.042659603 0.059963573 0.017622015 0.004393461 0.05917545 0.030392509 0.012959814
0.010724072 0.022076866 0.084728844 0.09796638 -0.03434599 0.027824776 -0.02609953 0.051440775
00000000: ea65 5d3d b6e1 7b3d fdec e63b 2635 b93c
00000010: 3449 15bd 8537 5c3d ec7a ac3c ee32 1b3d
00000020: 51d8 fabb 3e13 72bd 74ef 98bc cbf1 0cbd
00000030: 5885 2c3c 5e24 c93d 9b49 82bd 96b0 e63c
00000040: 2d4a 98bb d6bb 2e3d 5d9c 753d 0b5c 903c
00000050: 06f7 8f3b f561 723d b6f9 f83c 6655 543c
00000060: 05b4 2f3c 8bda b43c 5186 ad3d 99a2 c83d
00000070: 61ae 0cbd c9f0 e33c aece d5bc 90b3 523d

conv3.weight f4 [5, 32, 5, 5]
0.05331122 0.0047866507 0.03993355 0.003937675 0.025911098 0.044141047 0.0038809418 0.029256415
0.0066815396 0.039365575 0.008451204 0.015409159 0.022611689 0.02725936 0.040337306 0.04744156
0.037026167 0.027392164 -0.017831458 -0.0008633379 -0.004302744 0.015819667 0.030443488 0.033791453
-0.007610599 -0.06580155 -0.04348177 -0.044344574 -0.09372775 -0.0760345 -0.094404005 -0.07610614
-0.01260811 -0.048907552 -0.06557672 -0.08197432 -0.054393288 -0.034504253 -0.055635426 -0.04973425
-0.08264858 -0.031959794 -0.0058487444 -0.06437714 -0.0798078 -0.047897883 -0.0421577 -0.030233994
-0.028530004 -0.08771071 0.0041600643 0.010190079 0.0072954344 0.01017462 0.04262457 0.03959149
0.043801554 0.009048849 0.039275877 0.031640194 0.009143909 0.024922848 0.0018535163 0.036734816
-0.0016252719 0.0008376583 0.041617602 -0.01721046 0.028166162 0.030579498 0.03912365 0.0510531
-0.00449095 0.041063134 0.0521313 0.023941912 0.0012883231 0.004519495 0.0124872485 0.019162696
-0.02311701 0.036510363 -0.012141567 -0.023995008 0.015976455 0.034760382 -0.02107649 0.0010363385
0.010181249 0.03116419 -0.009407062 -0.012120523 0.015623161 -0.00993648 -0.0004995082 0.03938606
-0.02135747 0.039333064 -0.006518367 0.013884389 -0.091020964 -0.08040307 -0.066556744 -0.10264748
-0.0770825 -0.105159596 -0.09224568 -0.080577314 -0.06305831 -0.07837686 -0.11209623 -0.06477873
-0.091888934 -0.07039155 -0.075458184 -0.053023 -0.053412434 -0.0471951 -0.043647256 -0.05899629
-0.10075146 -0.05826061 -0.057405014 -0.077314764 -0.0433686 0.07112617 0.05955773 0.026999507
0.044134654 0.036862075 0.017101517 0.03172673 0.047654234 0.04717 0.056746062 0.022240676
0.043842647 0.03385519 0.024496386 0.036280155 0.029931279 0.03431273 0.058560576 0.0655657
0.0065175095 0.05629278 0.039404258 0.0046627265 0.0361073 0.06771241 -0.02655974 0.021516718
-0.004923714 -0.01889228 -0.021431249 -0.029433193 -0.02943433 0.022542166 0.007244053 -0.0034814046
0.019703904 0.028189287 0.034388807 -0.016322272 0.023627141 0.015464975 0.01935249 1.1115763e-05
0.033318296 0.021257846 -0.01478104 0.022943275 -0.0005999083 -0.013437559 -0.029846046 0.0016540551
0.031224336 0.0425696 0.027640248 0.01182923 0.014792285 0.016005127 0.004674975 -0.02786379
0.020025996 -0.013028026 -0.004625781 -0.0014525809 0.0012137829 -0.007947524 -0.016978584 0.024025528
-0.008100531 0.0066046147 0.031047577 0.0016328109 0.0044535473 -0.0017413674 -0.024639064 0.038371243
0.001449719 -0.0021545272 -0.0014031447 -0.0032654265 0.0010973474 -0.0016073334 -0.0007024047 -6.62921e-05
0.0003007396 -0.003028872 -0.0008917647 0.001105758 -0.0025582772 0.00028058683 0.0013121954 -0.0017189002
0.0014186978 -0.0019509145 0.00074502925 -0.0020001915 -0.0005776915 0.0022181063 -0.002084263 -0.0004949515
-0.002547526 0.016854338 -0.02847902 -0.032923814 -0.017849842 0.018493488 0.026982969 0.0062008686
0.012373416 0.00739035 0.018771071 -0.024102762 -0.034857567 0.011999814 -0.007208317 0.014451453
0.005140404 0.030935144 0.008215892 0.01688933 -0.0035911615 0.05788929 0.026483681 0.014283101
0.022158494 0.01807428 -0.0012433042 -0.009266738 -0.0011357198 0.00025075435 0.011286809 0.0118746
00000000: de5c 5a3d 56d9 9c3b 5d91 233d 9d07 813b
00000010: 8343 d43c 3ecd 343d 6657 7e3b 26ab ef3c
00000020: d1f0 da3b cc3d 213d eb76 0a3c b276 7c3c
00000030: 263c b93c 054f df3c bb38 253d 1552 423d
00000040: c0a8 173d 8865 e03c 4713 92bc a051 62ba
00000050: 08fe 8cbb 3f98 813c 9f64 f93c e868 0a3d
00000060: 5562 f9bb f7c2 86bd f119 32bd a8a2 35bd
00000070: 56f4 bfbd fab7 9bbd e356 c1bd 89dd 9bbd
00000080: 3f92 4ebc 4953 48bd 164d 86bd 27e2 a7bd
00000090: 7fcb 5ebd 5554 0dbd f9e1 63bd 24b6 4bbd
000000a0: a943 a9bd 46e8 02bd d3a6 bfbb 29d8 83bd
000000b0: 4672 a3bd 9230 44bd 8dad 2cbd 48ad f7bc
000000c0: c1b7 e9bc aca1 b3bd 2651 883b 4af4 263c
000000d0: 8a0e ef3b 73b3 263c 1a97 2e3d b02a 223d
000000e0: 4269 333d a041 143c bedf 203d 2699 013d
000000f0: 56d0 153c 002b cc3c b0f1 f23a 3f77 163d
00000100: 1307 d5ba 4c96 5b3a 3877 2a3d f3fc 8cbc
00000110: b9bc e63c db81 fa3c 1f40 203d 0e1d 513d
00000120: d228 93bb d131 283d a187 553d d421 c43c
00000130: f3dc a83a 4618 943b 5197 4c3c 16fb 9c3c
00000140: e25f bdbc e48b 153d 6ced 46bc 2e91 c4bc
00000150: 0ee1 823c e760 0e3d 9aa8 acbc c0d5 873a
00000160: 41cf 263c 0b4c ff3c 1420 1abc 2895 46bc
00000170: 49f8 7f3c 9ecc 22bc 6ef1 02ba 4753 213d
00000180: dcf5 aebc b51b 213d 0798 d5bb 597b 633c
00000190: 3369 babd 5daa a4bd e74e 88bd d838 d2bd
000001a0: 6edd 9dbd ea5d d7bd 4eeb bcbd b805 a5bd
000001b0: b724 81bd 0c84 a0bd b592 e5bd b6aa 84bd
000001c0: 4430 bcbd 7229 90bd d289 9abd a52e 59bd
000001d0: ffc6 5abd a64f 41bd 77c7 32bd 18a6 71bd
000001e0: c856 cebd ada2 6ebd 8521 6bbd 3457 9ebd
000001f0: 46a3 31bd 99aa 913d cef2 733d 122e dd3c
00000200: 8ac6 343d b0fc 163d 7b18 8c3c e3f3 013d
00000210: 1631 433d 5435 413d 8f6e 683d 1432 b63c
00000220: 5994 333d bdab 0a3d a5ac c83c 809a 143d
00000230: 7132 f53c 818b 0c3d 37dd 6f3d 4f47 863d
00000240: d590 d53b 4293 663d 5c66 213d c9c9 983b
00000250: 40e5 133d ceac 8a3d d093 d9bc d443 b03c
00000260: 1b57 a1bb fcc3 9abc 9690 afbc e11d f1bc
00000270: 4420 f1bc 59aa b83c 855f ed3b 4728 64bb
00000280: 156a a13c 38ed e63c 47db 0c3d 49b6 85bc
00000290: b58d c13c ce60 7d3c 1d89 9e3c d77d 3a37
000002a0: c478 083d ef24 ae3c 2d2c 72bc 89f3 bb3c
000002b0: 2a43 1dba 3529 5cbc b27f f4bc e1cc d83a
000002c0: 2eca ff3c 765d 2e3d cd6d e23c 63cf 413c
000002d0: 575b 723c 2f1d 833c 8830 993b 9a42 e4bc
000002e0: 8f0d a43c 8073 55bc dd93 97bb 8764 beba
000002f0: cc17 9f3a 5536 02bc ac16 8bbc 2fd1 c43c
00000300: 17b8 04bc 866b d83b 7d57 fe3c 0b04 d63a
00000310: 10ef 913b 983e e4ba ddd7 c9bc 2a2b 1d3d
00000320: 7f04 be3a f832 0dbb b9e9 b7ba c400 56bb
00000330: ded4 8f3a 29ad d2ba 9521 38ba 4d06 8bb8
00000340: 96ac 9d39 0a80 46bb 51c5 69ba 15ef 903a
00000350: c5a8 27bb ba1b 9339 f9fd ab3a b84c e1ba
00000360: 99f3 b93a d4b5 ffba 114e 433a a515 03bb
00000370: 3870 17ba a65d 113b 2198 08bb a2bf 01ba
00000380: 65f4 26bb 1c12 8a3c d54c e9bc 1fdb 06bd
00000390: d539 92bc a87f 973c 630b dd3c a830 cb3b
000003a0: deb9 4a3c c02a f23b cac5 993c 2873 c5bc
000003b0: cfc6 0ebd de9a 443c bf33 ecbb cac5 6c3c
000003c0: d670 a83b b36b fd3c f39b 063c 7e5b 8a3c
000003d0: b159 6bbb 521d 6d3d 4ef4 d83c ab03 6a3c
000003e0: bb85 b53c 8310 943c 5ef6 a2ba 84d3 17bc
000003f0: 6fdc 94ba ae77 8339 4fec 383c af8d 423c

conv3.bias f4 [5]
-0.01781435 -0.02042949 -0.047965974 0.05859499 0.040191744
00000000: 66ef 91bc bf5b a7bc f877 44bd 4d01 703d
00000010: 19a0 243d
