Results/ancien/def/checkpoints/best.pt (torch, 463658 bytes, 6 tensors)

conv1.weight f4 [64, 3, 5, 5]
000000 a9 8a 9f 3d 1c 6f b2 3d 1c 98 08 bd 5d 04 d5 3d
       0.07790119 0.08712599 -0.033348188 0.10401223
000010 d8 7b ea bc 6e 3c 9c 3c a2 06 78 bd dd 23 8c 3d
       -0.028623506 0.019071784 -0.0605532 0.06842778
000020 55 6b d2 3d 93 11 b3 bd 52 47 cc 3d 0d 55 ad 3c
       0.10274378 -0.087435864 0.09974541 0.02115872
000030 67 c9 b3 3d 06 05 6f 3c 3d d3 5f 3d 01 95 94 bc
       0.08778649 0.0145886 0.054644812 -0.018137457
000040 d0 a9 b6 3d a5 f1 81 3c 23 bc 65 bd e6 31 d8 3c
       0.08919108 0.015862295 -0.056087624 0.02639098
000050 63 6c 66 bd 46 85 83 bc de 57 47 bd b6 30 94 3d
       -0.05625571 -0.01605476 -0.04866778 0.072358534
000060 dd 1f c7 bd 7c a1 87 bd ac 8d 35 bd 77 b5 a1 bd
       -0.09722874 -0.066225976 -0.044324562 -0.0789594
000070 01 b1 c9 3b 75 af fa bd 2b 39 c9 3d 07 e5 d6 bd
       0.0061551337 -0.12240497 0.09825357 -0.10492902
000080 8b e3 b3 3d da 88 93 3c 2a 39 39 bd 6a 50 8e 3d
       0.08783635 0.018009592 -0.04522053 0.069489315
000090 17 10 83 3c f4 64 c1 3d 77 c8 15 3c d5 d6 24 bd
       0.015998883 0.094430834 0.009142033 -0.040243942
0000a0 b6 a4 e4 3c a0 dd 02 bd e3 af 3c 3d 5e d6 c5 3d
       0.027910572 -0.03194964 0.046066176 0.09660028
0000b0 50 d6 7a 3d ae 05 61 bd 44 ce 81 3d f3 a1 7f 3c
       0.06123954 -0.054937057 0.0633817 0.015602577
0000c0 68 2a 57 3d 2e 33 a1 bd 9f a8 04 be f5 f1 70 bd
       0.052530676 -0.0787109 -0.12954949 -0.0588245
0000d0 7a 9c ce bd 3b 2f b2 3d ca ec c7 3c 4b b9 1f 3d
       -0.10088439 0.08700415 0.024404902 0.03899507
0000e0 d0 b2 da 3c c6 d5 c6 bb 79 af b0 3d f0 94 b9 bd
       0.026696593 -0.0060679642 0.08627219 -0.09061611
0000f0 72 92 2e 3b 69 c2 ab bd b7 dc 0c 3d 9f d0 3d bd
       0.0026637581 -0.0838669 0.034390178 -0.046341535
000100 31 45 e8 3c ce 34 f9 bc 3a 29 bd 3d ff e6 97 bd
       0.028353306 -0.030420687 0.09236379 -0.07417106
000110 0a 6b 9c bd ae 1a 9e bd 12 93 c4 3d c7 87 02 3d
       -0.076376036 -0.077199325 0.09598364 0.03186777
000120 10 b8 d2 3d 53 39 d6 bd ab 0f ff bd 6b 20 b0 bd
       0.102890134 -0.104601525 -0.1245416 -0.08599933
000130 29 fa 96 bd 13 56 4e 3d 24 57 38 3d 90 d5 cb 3d
       -0.07371933 0.050375056 0.04500498 0.09952843
000140 34 01 64 bd e0 fd 99 bd 7a db 83 3d 94 68 32 bd
       -0.05566521 -0.07519126 0.06438346 -0.043556765
000150 49 bc 95 3d 4d 94 c3 bc 65 8a 8d 3d 8e 6a b2 bd
       0.07311303 -0.023874426 0.06911162 -0.0871173
000160 68 4e 64 bd ba 1f 1a 3d 6f e2 e5 3c 44 3f d7 bc
       -0.055738837 0.037627913 0.028062074 -0.026275285
000170 00 7c 92 3d 70 14 a6 3d 4d 7a a6 bd f1 80 6d bd
       0.071525574 0.08109367 -0.08128796 -0.057984296
000180 e8 09 df 3d 49 96 14 bd 85 1a 1d bd 61 e4 df bd
       0.10890561 -0.036276136 -0.03835537 -0.10932232
000190 7c ce 86 bd ec 85 eb 3c 3d a2 80 bc 43 7b ac bd
       -0.065823525 0.028750382 -0.015702361 -0.08421948
0001a0 94 ca 10 3b d6 cd a1 bd cd d5 c9 bd 21 4d 84 bd
       0.0022093402 -0.07900588 -0.098552324 -0.06460024
0001b0 c7 0d d1 bd b4 df 98 bd f3 0b eb 3d ad 4e a9 3c
       -0.10207706 -0.07464543 0.114768885 0.020667398
0001c0 b7 1a 0b 3d 57 0a e0 bd 82 0e 9f bd 9e c4 1f bd
       0.033961024 -0.10939472 -0.07766439 -0.039005868
0001d0 2e 11 8b 3c 7e 4e d3 bd ed af 52 bd 89 5f 91 bd
       0.016975965 -0.103177056 -0.051437307 -0.070983
0001e0 80 f4 9d b9 1f a7 34 bd bb 30 1e bc 70 de a3 bd
       -0.0003012754 -0.04410469 -0.009655173 -0.08001411
0001f0 f9 59 a6 bd f6 b4 86 bd 47 3f 1d bd 78 0f b9 bd
       -0.0812263 -0.06577484 -0.038390424 -0.090361536
000200 84 1f c8 3d 8d 11 b4 bc 9f d9 cd 3d ea 07 16 3d
       0.09771636 -0.021981025 0.100512736 0.03662864
000210 e8 c5 c7 bd e6 43 a4 3d 8e c8 00 bd 70 65 32 bd
       -0.097545445 0.08020763 -0.031441264 -0.04355377
000220 84 f0 c3 bd 93 b2 eb bd 19 17 06 3d af 0c d1 bc
       -0.09567359 -0.1150867 0.03273687 -0.025518743
000230 ec d0 3b 3d 51 5a c1 bd d7 52 af 3d a2 f0 ad bd
       0.04585354 -0.094410546 0.08560722 -0.08493163
000240 48 18 a5 bc 6b c4 cd 3c 0c 0a 76 3d 9d d8 be 3d
       -0.02015318 0.025118073 0.060068175 0.093186595
000250 64 3e d7 3d 32 dd bb bd a5 03 17 3d a3 74 2b bd
       0.10509947 -0.09173049 0.03686871 -0.04185928
000260 85 a6 a8 bb 5e bf a1 bd 4e ae e6 3d 5f 06 9e bd
       -0.005146804 -0.078978285 0.11263715 -0.07716059
000270 05 f8 8d 3d 8f 42 45 3d b8 cf 38 3d c6 03 61 bd
       0.069320716 0.04815918 0.04511997 -0.05493524
000280 ce b1 e5 3d 41 f9 05 3d f4 78 b7 3c b9 b6 c0 bd
       0.11215554 0.03270841 0.022396542 -0.094098516
000290 d9 5e 65 3d 68 15 23 bc 0c 49 3a bd d3 37 da 3d
       0.055998657 -0.009953834 -0.04547982 0.10655179
0002a0 c6 2a 08 3d 2a 64 66 bd 2c 94 50 bd 41 8f fb 3a
       0.033243917 -0.056247868 -0.050922558 0.0019192473
0002b0 27 12 93 3d f6 8c b4 bc 9b d1 6e bd 63 fd 04 bd
       0.07181197 -0.022039872 -0.058305364 -0.03246821
0002c0 05 2a a2 bd c9 1a 44 3d 9d 9a c4 3d 63 0f d1 bd
       -0.07918171 0.047877107 0.09599803 -0.10208013
0002d0 ce ad 09 3d 7e 22 88 3d e6 35 e3 3c 37 83 0c bd
       0.03361302 0.06647204 0.027735662 -0.034304824
0002e0 53 14 89 3d e0 1e 89 3d 09 4e 4b 3d f2 da 5d bc
       0.0669333 0.06695342 0.049634967 -0.01354097
0002f0 7e ff c1 bc 68 28 9c 3c e8 41 64 bc 42 3c e4 bc
       -0.023681398 0.019062236 -0.013931729 -0.027860764
000300 1b 73 a4 3d b8 db d8 3d f0 4d 96 bb a2 48 9d bc
       0.08029767 0.10588783 -0.0045869276 -0.019199673
000310 ee c7 06 3c 24 6a f2 b9 37 c4 0c 3d a1 3e 20 3d
       0.008226378 -0.00046236918 0.034366813 0.039122228
000320 61 86 c5 bd 5c 0c 0c bd 03 b7 d7 3d b4 14 59 3d
       -0.09644771 -0.034191474 0.105329536 0.05299826
000330 64 96 15 3b 0a 91 7b bd 47 bc 7f bd 46 18 c3 bd
       0.0022825236 -0.061417617 -0.062435415 -0.09526114
000340 cf 53 f1 bc 04 bd 40 3d 54 c2 a6 3d 99 d7 7a 3d
       -0.029458908 0.04705526 0.08142534 0.061240766
000350 af 5a c0 bd 51 9a 7a bd 5c c0 25 bc c5 1d f5 3d
       -0.093922965 -0.061182324 -0.010116663 0.11968569
000360 74 96 ca 3c ba ba b3 bc a7 d4 64 3d 73 64 12 bd
       0.024729945 -0.021939624 0.055866864 -0.035740327
000370 48 64 88 bd f3 0d bd 3d 4c 96 36 bd 8f 25 77 bc
       -0.06659752 0.09231176 -0.044576928 -0.015084638
000380 95 7e da bd 9d 5e a6 3d f2 4b ba 3d a0 51 38 3d
       -0.10668675 0.08123515 0.09096517 0.04499972
000390 50 23 9f bd 55 df e3 bd 55 af b8 bd 17 b9 b6 3d
       -0.07770407 -0.111265816 -0.09017817 0.08922022
0003a0 05 72 6d 3d 3d f1 cb 3d 73 8a 80 3d ee 53 04 3d
       0.057970066 0.09958122 0.06276407 0.032306604
0003b0 19 18 bb 3a 05 d8 af bd 21 dd c6 bd 53 bb d9 bd
       0.001427415 -0.08586124 -0.09710146 -0.106314324
0003c0 55 4c 4e 3d a0 cd 5d bd 01 92 ae bc f8 61 84 bd
       0.050365765 -0.054151177 -0.021309854 -0.064639986
0003d0 0c 8a 9e bc eb 63 a0 bd cc b3 95 bd 3c d9 23 3d
       -0.019352935 -0.07831558 -0.07309684 0.040002093
0003e0 c5 00 06 bd ff 19 95 3d e6 b6 18 bd d9 05 af bd
       -0.032715578 0.07280349 -0.0372838 -0.08546037
0003f0 db 48 b2 bc 39 87 6b bd de 8c 17 bd d6 64 e2 bd
       -0.021763256 -0.057502005 -0.036999576 -0.11054389

conv1.bias f4 [64]
000000 19 51 76 bd 65 92 85 3d be 40 32 bd 2a a9 2a 3d
       -0.060135935 0.06522063 -0.043518774 0.041665234
000010 a7 bf ab 3d 98 b3 5b 3c 36 d2 3e 3d 16 01 d1 3d
       0.08386164 0.013409518 0.04658719 0.10205285
000020 60 0b 21 bd 60 8c bf 3d 48 09 ba bd c0 a2 e8 3d
       -0.03931749 0.09352946 -0.090838015 0.11359167
000030 32 e2 1a bd fe 11 1c bc 29 3c 94 3d 24 1b 54 3c
       -0.037813373 -0.009525774 0.07238037 0.012945924
000040 3c 84 e8 3d f6 0e 36 bd 98 08 85 bd f4 41 d2 3d
       0.11353347 -0.04444786 -0.0649578 0.10266486
000050 98 48 4a bd 79 e3 96 3d d8 82 f3 3d 39 7f b2 3d
       -0.049385637 0.07367606 0.11890191 0.08715672
000060 c9 e2 06 bd 33 48 0a bb 00 d2 d4 bd 8a eb 68 bd
       -0.032931123 -0.0021100163 -0.10391617 -0.056865253
000070 3b 9a ee b9 23 70 9a bd bf 61 6d 3d 7c 91 60 3d
       -0.00045509808 -0.0754092 0.057954546 0.054826245
000080 bb f7 c7 bc 31 18 dc bb 70 62 05 3e 76 45 23 bc
       -0.02441012 -0.006716751 0.13025832 -0.009965291
000090 b5 c1 f3 3d ef 45 db 3d 04 61 f1 bc 0a 2a e0 bd
       0.11902181 0.10706698 -0.029465206 -0.10945518
0000a0 46 af f7 3d 07 67 87 bd f3 48 00 3e 06 42 93 bd
       0.12093978 -0.06611448 0.12527828 -0.07190327
0000b0 f8 f1 b5 3c b7 e7 08 3d 84 2c eb bc 88 8d b6 3d
       0.022210106 0.033424105 -0.02870775 0.08913714
0000c0 cc c2 c0 bd 04 d5 46 bd 15 25 ba bc e2 59 c9 3d
       -0.094121546 -0.04854299 -0.02272276 0.09831597
0000d0 5c 7b 74 3d 19 0b b1 3d a2 49 8a 3d 59 e2 ca 3d
       0.059687957 0.08644695 0.067523256 0.09906454
0000e0 92 4f 9d bc 62 a4 00 bd 03 40 ad bc 5e 25 3f 3d
       -0.019202981 -0.031406768 -0.021148687 0.046666496
0000f0 99 33 ff bc 77 fa 49 3d cc 51 2d 3d 0e 1c d7 3c
       -0.031152533 0.049311128 0.042314336 0.026258495

conv2.weight f4 [64, 64, 5, 5]
000000 c1 cb 9c 3c 5b 52 89 3b eb d0 8d 3c 32 e8 d2 bb
       0.019140126 0.0041907257 0.017311534 -0.0064363712
000010 2d dc b4 bc 68 ee 5e 3c ef 51 22 3c c1 e9 ab 3c
       -0.022077644 0.013606645 0.00990723 0.020985486
000020 38 f2 17 3c 95 4b 8d 39 42 cd a8 bc 1e 57 cf bc
       0.009274058 0.0002694993 -0.020605687 -0.025310095
000030 12 bc 81 3b de 45 9d 3c bc af 46 bb a4 a8 3d bc
       0.0039591873 0.019198354 -0.0030317148 -0.011575852
000040 04 88 23 3c 4c 13 68 bc 7a 55 df 3b 8f 66 b6 bc
       0.009981159 -0.014164757 0.0068156095 -0.0222657
000050 3b 54 dc bc 62 a3 93 bc d5 5a ef bb a8 96 b3 3b
       -0.026895633 -0.018022243 -0.007304529 0.005480606
000060 15 18 20 3c d3 8c a9 bc c4 39 23 bc 6a 61 61 3b
       0.009771367 -0.020697033 -0.009962503 0.0034390339
000070 16 64 23 bc a8 10 6f bb b7 fa 3b 3c ea 6e 44 bc
       -0.009972593 -0.0036478434 0.011473349 -0.011989335
000080 89 b9 03 3c 2e fc 80 3c 70 16 8a 3b 5d eb 12 bc
       0.0080398405 0.015745249 0.0042141005 -0.008967248
000090 4a fb a7 bc 95 20 af bc 1a e6 1b bc 97 99 69 3b
       -0.020505566 -0.021377841 -0.00951531 0.0035644525
0000a0 5f b4 1a 3c 32 ac b7 bb fe ae 7e 3c 91 c6 6b bc
       0.009442418 -0.005605244 0.015544651 -0.014390604
0000b0 c7 62 50 3a 8f 9f 88 bc 9a 71 2e 3b 22 b7 8b 3c
       0.0007949289 -0.016677646 0.0026618005 0.017055098
0000c0 d3 98 94 3b a5 cb 19 bb ca 6c 65 bc e1 de cb bc
       0.0045348196 -0.002346733 -0.014002988 -0.02488655
0000d0 91 50 ab bc ba ea ca bc d1 eb 6f 3c 70 51 7c bc
       -0.02091244 -0.02477013 0.014643625 -0.015400276
0000e0 48 f5 09 bc 20 32 db bc a4 d6 33 bc 3f a6 91 3c
       -0.008420296 -0.0267573 -0.010976467 0.017779468
0000f0 e3 29 9c b9 6f e8 17 bc 07 67 08 3c 1e 43 73 3c
       -0.00029785847 -0.009271725 0.008325345 0.014847545
000100 80 0c 7e 3c 4e 54 c1 bc 70 70 58 bb 16 7a d0 bc
       0.01550591 -0.02359977 -0.0033026002 -0.02544884
000110 c1 c4 b3 bc 1c 6f 72 3c fd 52 cd bc d0 dd 8e bc
       -0.021944406 0.014796998 -0.025063986 -0.017439753
000120 73 ee e4 3b 30 26 9f 3c 8c cb ed bc e5 a2 a9 bc
       0.006986433 0.019427389 -0.029027723 -0.020707557
000130 97 0c 6e bc 2f d2 6d 3c c8 2f 1f 3c 37 e4 35 3c
       -0.014529369 0.014515444 0.009715982 0.011101774
000140 c0 f7 3c 3c 96 43 33 bc cc 87 5e 3c 24 56 b8 bb
       0.011533678 -0.010941407 0.013582181 -0.005625503
000150 19 ed 11 bb af 19 35 bc f6 64 c4 3b b6 66 d1 3b
       -0.0022266565 -0.011053487 0.005993481 0.006390418
000160 56 c2 f5 bb d7 d9 8e 3c c0 c0 2d bc 59 3f 03 3b
       -0.0074999733 0.017437859 -0.010605037 0.0020026772
000170 99 0b 95 3c b0 14 1b 3c 8f 31 5d bc f5 af 78 bc
       0.018194007 0.0094653815 -0.013500585 -0.01517867
000180 26 27 4b 3a d8 24 92 bb 3d 52 2f bb 19 64 42 3c
       0.0007749669 -0.0044599585 -0.0026751899 0.011864685
000190 2a 47 74 3b b6 20 9a bc c7 4b ce bc b4 f0 9f 3c
       0.0037273862 -0.018814426 -0.025182618 0.019523956
0001a0 36 94 ce bb 1c 43 73 bc 0d dc bd bc d0 27 9d 3c
       -0.006304289 -0.014847543 -0.023176217 0.019184023
0001b0 c8 1b 09 3c da fc 9f bc c6 79 d9 bc d1 78 8a 3c
       0.00836844 -0.019529749 -0.026547324 0.016903313
0001c0 25 2f c0 3b 2d 94 03 bc 48 1c c9 bc 75 11 2c 3c
       0.005864995 -0.008030933 -0.024549618 0.010502209
0001d0 ca b2 b0 bc c7 b7 f7 3b ce 53 e5 bc ff 38 d5 bc
       -0.021569628 0.0075597498 -0.027994063 -0.026028154
0001e0 66 aa e8 bc 1b 6b 95 3c a7 57 94 3c 1b 3a d1 bc
       -0.028401565 0.018239548 0.018108202 -0.025540402
0001f0 15 af 7e 3c d4 96 7f bc e8 5e c6 bc d8 24 25 3c
       0.0155446725 -0.015599925 -0.024215177 0.010079585
000200 3c 58 39 3c 92 34 30 3c 58 28 6e 3b e5 ca ba 3c
       0.011312541 0.010754721 0.0036339965 0.022801826
000210 04 6e c1 bc 78 ee 0d 3c bf 03 39 bc a7 05 fd 38
       -0.02361203 0.008662812 -0.011292397 0.00012065033
000220 06 cd 82 3c 62 58 a2 bc a8 04 06 3c 9f ac 07 bc
       0.015966903 -0.019817535 0.008179821 -0.008280902
000230 97 21 6d 3c cf 58 1e bb 23 65 28 3c 4d fa ac 3c
       0.0144733405 -0.002416182 0.010278019 0.021115446
000240 ad cc 49 bc fb f1 da bc 96 c8 b0 3c 99 96 83 bc
       -0.012316865 -0.026726713 0.021580022 -0.016063021
000250 dd 8e 34 3b 85 f9 47 3c ca 6f 19 3c 55 62 06 3d
       0.0027550973 0.012205486 0.0093650315 0.03280862
000260 fe 4b f2 3c 4e 49 09 3c 1e 17 a4 3c 49 70 6e 3c
       0.029577252 0.008379294 0.020030554 0.014553138
000270 12 ee 16 3d 7f 8e f2 3c 9f 8e 8b bb 5e 0c 71 3c
       0.036848135 0.029608963 -0.004258945 0.014712421
000280 3e 34 bb 3c 9b 05 e0 3c 92 dc 81 3c ba 3f 8c 3c
       0.02285206 0.027346423 0.015852246 0.017120231
000290 d6 6e be 3a c4 0f 15 3c 03 fe 22 bc cb 7f d9 3c
       0.0014528881 0.009097997 -0.009948256 0.026550194
0002a0 f2 56 c4 3c 0a 4d 21 bc 7d d1 53 bc 5e 18 dc 3c
       0.02396724 -0.009845028 -0.012928364 0.026867088
0002b0 e9 47 85 bc 05 92 a5 3c 34 e2 a8 bc 74 13 7a bc
       -0.016269641 0.02021123 -0.020615675 -0.015263427
0002c0 db be 60 bc 30 ed a0 3c 0f eb 0b bc 2e 40 8b 3c
       -0.0137173785 0.01964435 -0.008539929 0.016998377
0002d0 58 6b a7 3b 24 0e af 3c 7d 31 53 3c ca 23 68 3c
       0.005109232 0.021369047 0.012890217 0.014168689
0002e0 34 2f 8d 3c f6 ad 1d bc 05 e4 1c bc cc fa 96 3b
       0.017234422 -0.009623995 -0.0095758485 0.004607534
0002f0 69 3f 92 3c 66 33 62 bc ba d4 b0 bc 8d ff b2 bc
       0.017852502 -0.0138062 -0.02158581 -0.021850372
000300 1b 4f 6c bc 74 0a e4 39 eb a4 e4 bb ed 74 0e bc
       -0.014423157 0.00043495337 -0.0069776676 -0.0086948695
000310 2f 44 66 bc 70 6c 6b 3b 8b 21 c5 bc ae 4f a9 3c
       -0.014054342 0.0035922788 -0.024063846 0.020667877
000320 03 69 0e bc 2c 49 01 ba 56 96 3f 3b 62 ac 76 bc
       -0.008692029 -0.0004931863 0.0029233894 -0.015055748
000330 a6 b3 6d 3c c0 0a 9a bb 3f 86 3a bb 3e 33 ed bc
       0.014508164 -0.0047009885 -0.0028461365 -0.028955098
000340 40 2b 0f bb 45 1a 5b 3b ad 7f 69 ba e7 b9 ea bb
       -0.0021845847 0.0033432406 -0.000890727 -0.0071632746
000350 7c 52 64 3c 10 0e 6f 3c 41 66 44 3c 2e a2 09 bc
       0.013935681 0.014590755 0.01198727 -0.008400483
000360 1d 9b 6c b8 d5 75 b4 bc bb 95 c0 bc a8 11 18 bc
       -5.6411245e-05 -0.022028843 -0.023508897 -0.009281553
000370 e0 9b 78 ba df 85 98 bc ab cb cd bc c2 b9 e1 3b
       -0.00094836764 -0.018618522 -0.02512153 0.006888599
000380 98 f2 92 3b 45 12 e7 bb 2b 48 e4 3c a0 49 dc bb
       0.004484486 -0.0070517384 0.027866444 -0.006722644
000390 86 77 03 3d 02 03 df 3c 39 7e 52 ba 69 b1 08 3d
       0.03209641 0.027223114 -0.0008029673 0.033372317
0003a0 dc c3 5d bb dd ce 3d 3a 29 22 08 3d c7 3d a5 bb
       -0.0033838665 0.0007240603 0.033235703 -0.005042765
0003b0 fc f7 30 bb 35 fd 53 3c 01 43 dc 3b 1a f9 e6 3c
       -0.002700328 0.012938787 0.0067218547 0.028194953
0003c0 61 d5 9e 3c 9f 29 51 3c 62 b2 4b 3c 93 5d 80 3c
       0.019388856 0.012766271 0.0124326665 0.01566962
0003d0 96 69 46 3c 54 20 b8 3a d5 5f 78 3b 82 f3 bc 3c
       0.012110135 0.001404772 0.0037898917 0.023065332
0003e0 6a f9 b7 3c 77 47 03 3c 0f 7b de 3c 22 f7 92 3c
       0.022457797 0.008012644 0.027158288 0.017940108
0003f0 5c 5d b4 3c 22 8c f2 3c 45 ed 8d bb d8 d7 b0 3c
       0.022017173 0.029607836 -0.0043312632 0.021587297

conv2.bias f4 [64]
000000 6e fc 68 3b 96 68 e0 3b 1c 02 9b 3c 62 43 cc 3a
       0.003555085 0.006848405 0.018921904 0.0015584046
000010 4a 13 9b 3c 5e c3 37 bc e5 fd cd 38 2a a5 81 bb
       0.018930096 -0.011216013 9.822453e-05 -0.0039564567
000020 ad 3e 20 3b af 01 78 3b 66 3d 3e 3c 78 bb 46 3c
       0.002445142 0.00378428 0.011611318 0.012129657
000030 d4 f3 f8 3a b4 eb 9b 3c f7 f6 8a 3c 26 70 90 bc
       0.0018993565 0.01903329 0.016963465 -0.017631602
000040 9f 0d a1 bc 71 af f4 3c 99 a3 04 bc 5e ed ae 3c
       -0.019659815 0.029868813 -0.008095645 0.02135342
000050 4b 42 5b 3c aa f2 d6 3c 51 bd eb bc 4c 66 f4 3b
       0.013382505 0.026238758 -0.028776797 0.007458484
000060 f2 f4 95 3c 54 93 25 bc 29 fd 07 3d 56 ab a0 bc
       0.018305276 -0.010105927 0.033200417 -0.01961295
000070 f1 95 8d bb 25 ad 59 3c 6a de 41 bc d2 bc 74 3b
       -0.004320853 0.01328591 -0.011832813 0.003734399
000080 6c a6 ab bc aa 1f c7 ba 6d a2 e7 b6 30 b0 da 3b
       -0.02095338 -0.0015191932 -6.9032453e-06 0.006673835
000090 7b 4e d4 bc f4 9f 7b bc fb 24 11 3d b7 79 ba 3b
       -0.025916329 -0.01535796 0.035435658 0.005690779
0000a0 cf 64 55 3c 47 12 2a bc ad 1d 36 bc 97 ce aa bb
       0.013024523 -0.010380334 -0.011115474 -0.0052126157
0000b0 60 87 a0 3c 2c 8c fe 3c ec 1f 45 3c 59 36 43 bc
       0.019595802 0.031072699 0.012031537 -0.011914813
0000c0 83 a1 26 bc 60 ed 81 bc 45 c8 d5 3b f8 8e 2d 3c
       -0.010170343 -0.01586026 0.006524118 0.010593168
0000d0 34 b7 65 bc 71 be 7b bc ad 66 b1 3c 1b 3a d0 ba
       -0.01402073 -0.015365229 0.021655405 -0.0015886457
0000e0 56 35 bc bb b7 a2 87 ba 2f a2 7a bc 1b 5e de b9
       -0.005743663 -0.0010348175 -0.015297457 -0.00042413254
0000f0 8f e6 92 3b b2 f8 23 bc 78 65 96 bb 6e 6e c0 3c
       0.004483051 -0.010008024 -0.0045897327 0.023490157

conv3.weight f4 [5, 64, 5, 5]
000000 24 c3 91 3c 3c 6a 62 3c 64 7d 7e 3c a3 a3 33 3b
       0.017793246 0.013819274 0.015532825 0.0027410768
000010 37 4b a4 3a 72 de 8e 3c 76 e8 1f bc 12 07 77 3c
       0.0012534623 0.017440055 -0.009760013 0.015077369
000020 05 33 02 3d 10 e4 13 3c 6e cd df 3b 36 8b 71 bc
       0.031786937 0.009026542 0.006829909 -0.014742663
000030 fa e3 ba bb f9 e1 be 3c 9b 1d bf 3b 8c 91 3a bc
       -0.0057034465 0.023301112 0.0058323867 -0.01138724
000040 eb 0d 74 bb b3 54 cd 3c 7e 67 bf 3b 0d a2 b9 3c
       -0.003723974 0.025064802 0.0058411947 0.02266028
000050 57 fc fc 3a 3d b9 d2 3c 51 2b 48 3c 03 20 43 3c
       0.0019301277 0.025723094 0.012217359 0.011909488
000060 60 82 6e 3c 51 6a 2c 3c 68 b3 85 bc 6b 63 c2 bb
       0.014557451 0.010523395 -0.0163209 -0.0059322617
000070 94 08 2c 3b a3 1c e3 ba 59 f2 1f bc 10 1f c2 3c
       0.002625023 -0.001732726 -0.00976237 0.023696452
000080 db b3 68 3c 72 9d 16 3b 56 3d 04 3b 24 42 9e bc
       0.014203037 0.0022982028 0.002017816 -0.019318648
000090 1f 88 fb bb a2 46 2a bb fe 1c 12 3c 2d 54 ee 3c
       -0.007676139 -0.0025982042 0.008918045 0.029092873
0000a0 1e a0 2e 3b 4f 87 15 bc 4a 89 1a 3c 79 8c cb bb
       0.002664573 -0.009126498 0.009432146 -0.006211814
0000b0 76 d7 57 bc 10 a5 73 3b 51 17 ae 3c aa 20 c2 ba
       -0.0131739285 0.0037177242 0.021251353 -0.001481076
0000c0 67 6e 22 3c b2 83 25 3b 01 e9 83 3c 7e 82 30 3c
       0.009914017 0.0025255498 0.016102316 0.010773299
0000d0 b8 0d 42 bc ac 1d a0 3c 73 aa 7c bb 63 1f 21 3a
       -0.011844091 0.019545399 -0.0038553744 0.00061463396
0000e0 c8 2c de 3b 97 e1 26 b9 8e b3 d0 bc e0 12 af 3c
       0.0067802407 -0.00015915032 -0.025476243 0.021371305
0000f0 38 de bd bc ef a8 c7 bc 53 21 b2 bc ff 67 d1 bb
       -0.023177251 -0.024372546 -0.021744406 -0.006390571
000100 23 a1 b7 3b 3d c5 3d bc 1b a9 e8 3b 4e 54 9d 3b
       0.005603926 -0.01158267 0.007100237 0.0048013097
000110 36 c2 93 bc 68 a8 05 bc 5a cc 74 bc f7 bb 9d bc
       -0.018036943 -0.008157827 -0.014941299 -0.019254668
000120 11 57 28 3c 08 3a 16 bc 9e f0 82 bc cc 78 d7 3b
       0.0102746645 -0.009169109 -0.015983876 0.0065756794
000130 d0 04 41 bc 08 e8 a1 bc cb 66 30 bc 75 5b 4c 3c
       -0.011780933 -0.019763961 -0.010766695 0.012472977
000140 70 65 a3 3c b8 ec a5 3b 36 2f b4 3a 78 56 aa bc
       0.01994583 0.0050636195 0.001374698 -0.020793185
000150 46 34 25 ba 2a 0a 77 bc 39 ca 96 3c ce 69 78 bb
       -0.000630204 -0.015078107 0.018406974 -0.0037904861
000160 30 4b 1f 3c 85 32 be 3b 33 48 66 bc c4 79 96 bc
       0.009722516 0.0058043622 -0.0140553 -0.01836861
000170 91 a9 c5 bb 70 a2 cf 3b 9f 89 26 bc 1b e6 d1 bc
       -0.006032177 0.0063365027 -0.010164647 -0.025622418
000180 91 87 12 3b 9a dc e6 3b 22 ea f0 bb dc d4 e1 3b
       0.0022358636 0.0070453407 -0.0073521296 0.00689183
000190 95 0c 39 3c 4d ab 24 3c fc b4 a7 bc cd 4e bc bc
       0.011294504 0.010050607 -0.020472042 -0.022986794
0001a0 35 dc 7e bc 1e f7 ae bc ff 44 be bc fb cf e0 bc
       -0.015555431 -0.021358069 -0.02322626 -0.027442923
0001b0 d7 70 41 bc 94 82 37 bb bd a7 e5 bc e9 06 66 3c
       -0.011806688 -0.0028001415 -0.028034085 0.014039733
0001c0 4c 92 d8 bc 09 eb 80 bc 93 3b d7 bb 28 e1 6c bc
       -0.026436947 -0.015737073 -0.006568381 -0.014457978
0001d0 45 d3 d3 bc 1e 6a 2b bc b7 01 aa 3c a5 9c 0a 3c
       -0.025857577 -0.010462312 0.02075277 0.0084601985
0001e0 b9 ba e9 39 a7 ea 4e 3c d9 e4 cb bc 0a 03 5f bc
       0.00044580342 0.012629188 -0.024889397 -0.013611564
0001f0 53 ec b0 3b 61 95 ae bc 52 5b 0f ba b4 1c 83 3c
       0.005399266 -0.021311464 -0.0005468625 0.016004898
000200 70 39 85 3c f4 2d 84 3c af 1c d3 3a 0d 59 b2 bc
       0.01626274 0.016135193 0.0016106571 -0.021770978
000210 60 d6 cc 3b 69 98 5f bb 67 d0 cd bb 81 58 59 bc
       0.0062511414 -0.0034117943 -0.006280947 -0.01326573
000220 02 eb a9 3a f7 cf 92 3c 4f 04 99 bc 60 9f 37 bc
       0.0012963715 0.017921431 -0.018678812 -0.011207432
000230 65 df a8 bb 1d 25 d4 3c 85 13 fd bb 12 e6 70 bb
       -0.005153584 0.025896603 -0.007723274 -0.0036758226
000240 a1 f9 88 3c e7 1a 8a bc d0 a7 e1 bb 7f 5d 6e 3c
       0.016720595 -0.016858531 -0.00688646 0.014548658
000250 7f fc 8c 3c 1f bf 83 3c 50 8f 84 3c 2d e7 22 bb
       0.017210243 0.016082345 0.016181618 -0.002485703
000260 7a c7 c0 3c 38 a2 40 bc c6 e0 c5 bb c5 64 0d bc
       0.023532618 -0.011757426 -0.006038758 -0.008629982
000270 2b e0 84 3c 30 2a 82 3c cf f4 a5 3c f5 7c 90 bc
       0.016220173 0.015889257 0.020258335 -0.01763771
000280 02 c6 04 bc b5 10 cc bc 3c 21 58 3b fc de ca bb
       -0.008103849 -0.02491031 0.0032978794 -0.0061911326
000290 a1 43 65 bc ea 96 81 3c 12 fe 17 3c cb 58 a1 3c
       -0.013993175 0.015819032 0.009276884 0.01969566
0002a0 ba fb a2 bb 06 bf 3a 3c 83 fe b9 bc 92 70 a4 bc
       -0.004973856 0.011398083 -0.022704368 -0.020073209
0002b0 da 9a 8b bc 5a 21 89 bc 47 c3 ee 3b 5d 6d 8c 3b
       -0.017041612 -0.016739536 0.0072864625 0.004285498
0002c0 b8 41 f5 bb d8 f1 76 3c cc 65 2e 3c b1 be 88 bc
       -0.007484641 0.0150723085 0.010644387 -0.016692491
0002d0 d0 30 bf bc e4 da 2b 3c 19 ae 2f bb e4 4e 86 ba
       -0.023338705 0.010489199 -0.002680665 -0.00102469
0002e0 54 5a f9 b9 6e 02 81 bc 8e 6e c8 ba 03 ba b7 bc
       -0.0004756028 -0.015748229 -0.0015291737 -0.022427564
0002f0 90 7b 63 bc 2c 6e ab bc 20 ae 98 bc ac e3 80 bb
       -0.01388444 -0.020926557 -0.018637717 -0.0039333906
000300 cb 95 bd bb 6e 6b b5 bc b1 75 4c bc 0e 5a 99 ba
       -0.005785679 -0.022145953 -0.012479232 -0.0011699812
000310 4c 95 55 3b b4 70 50 3b 33 ff 95 3c 2f f7 9e bb
       0.0032590209 0.0031805458 0.018310165 -0.004851244
000320 ad c5 dc 3c 1e 69 09 bc 40 74 68 bc 7e 3b 42 bb
       0.026949728 -0.008386878 -0.014187872 -0.002963751
000330 4d 47 ff b8 c7 ac 48 bc d3 88 ce 3c 2a b3 b0 bc
       -0.00012172628 -0.012248225 0.025211727 -0.021569807
000340 6a 19 e5 3c 86 a8 81 bc 6e 9d ff 3b 77 52 52 3c
       0.02796622 -0.015827429 0.0078007495 0.012837044
000350 29 5c 53 3b 6f c4 56 3c 8b cd df 3c 0e 5b f5 bb
       0.0032250977 0.013108357 0.02731969 -0.007487661
000360 37 17 b6 bc 12 fd 86 3c 93 86 b9 bb 95 5b dd 3c
       -0.022227867 0.016478095 -0.0056617945 0.027021209
000370 71 9a 5d bc 9b ce 8f bc 4a 3b 9a bc 50 05 5a 3c
       -0.013525591 -0.017554572 -0.0188271 0.013306931
000380 6e 4e ce bb 49 7a bc 3c ed 4b 22 bb 68 f6 bd 3c
       -0.0062959706 0.023007529 -0.0024764494 0.023188785
000390 fd 80 cd 3b c8 ce a1 3c 38 d7 9c 3c cf d3 98 3c
       0.00627148 0.019751921 0.019145593 0.018655686
0003a0 68 69 70 bb f6 64 32 3c 5d df 1c ba 90 50 51 3b
       -0.003668392 0.010888329 -0.00059842115 0.0031938888
0003b0 57 bd b2 3c 90 5f 2b bc 1e 2c a7 bc c6 d0 53 3c
       0.0218188 -0.010459796 -0.020406779 0.012928193
0003c0 b8 c5 d6 3c d7 fc 10 3c 31 86 a9 3b 28 5c 83 bc
       0.026217327 0.008849344 0.0051734676 -0.016035154
0003d0 d7 8b 85 3a f9 72 68 bc 9d 9a be 3c f4 e5 ca 3c
       0.001018877 -0.014187568 0.023267085 0.024767853
0003e0 19 ba 92 bc f4 24 bd 3c 14 68 06 3c 2f 4a c6 3c
       -0.017911004 0.02308891 0.008203525 0.024205295
0003f0 70 17 81 3b 63 0c 90 3c 4f 70 14 3b b3 9f 39 3a
       0.0039395615 0.017584031 0.002264995 0.0007080987

conv3.bias f4 [5]
000000 f2 33 57 3b bc c8 86 bc ed 80 53 bc 9f 76 c0 3c
       0.0032837358 -0.01645314 -0.012909156 0.023494063
000010 1c d4 a4 ba
       -0.001257542
