Results/DefaultExp/checkpoints/best.pt (torch, 463658 bytes, 6 tensors)

conv1.weight f4 [64, 3, 5, 5]
000000 81 1a 8c 3d 37 fb a6 3d d6 26 fd bc d6 3f e4 3d
       0.06840993 0.08153384 -0.030902307 0.11144988
000010 f9 c3 f4 bc e3 2e a2 3c 28 9f 73 bd 4c 79 a0 3d
       -0.029878603 0.019797748 -0.059477955 0.078356355
000020 67 aa ed 3d d9 25 a9 bd b4 c9 cf 3d ed 93 c6 3c
       0.11604767 -0.08259172 0.10145894 0.024240458
000030 a8 c4 d0 3d 5d 8e f6 3c 78 5e 84 3d 3a 30 bb bc
       0.10193759 0.030097181 0.06463331 -0.022850145
000040 56 25 b6 3d 01 d4 c7 3c c3 8c 47 bd b2 5b e9 3c
       0.0889384 0.024393084 -0.048718225 0.028486107
000050 ce 90 82 bd 4b 67 94 bc 1f bf 34 bd cb 33 8f 3d
       -0.063752756 -0.01811566 -0.04412758 0.069923006
000060 77 d0 d9 bd 4e 20 c1 bd f6 ec 8f bd d8 7c c5 bd
       -0.10635465 -0.0942999 -0.070276186 -0.09642953
000070 0d 46 83 bb ae b9 0e be 42 1e a5 3d 8e d6 fe bd
       -0.0040061534 -0.13938019 0.08062412 -0.12443267
000080 f5 ea 9f 3d 93 30 6a 3c dc 35 65 bd 1f 78 5d 3d
       0.07808486 0.014293808 -0.055959567 0.054069635
000090 67 ef 99 38 d2 da b9 3d 7e da 14 3c a9 87 33 bd
       7.340201e-05 0.0907494 0.009085296 -0.043830547
0000a0 7f 68 16 3c 9d 74 3f bd 65 bb 27 3d f0 64 bb 3d
       0.009180187 -0.04674207 0.040950198 0.09150112
0000b0 29 e4 53 3d c1 72 94 bd 74 3f 53 3d bf 47 3b 3c
       0.051731262 -0.0724845 0.051574185 0.01143068
0000c0 a4 8a 27 3d 40 9a c8 bd 0e 2f 0c be a0 e8 86 bd
       0.040903702 -0.09795046 -0.13689825 -0.065873384
0000d0 0f 9d d1 bd 57 12 ba 3d a7 e9 96 3c 47 d3 11 3d
       -0.10235035 0.09085529 0.018421961 0.03560188
0000e0 b8 e4 96 3c f5 b4 e2 bb ff bb b7 3d a4 11 c3 bd
       0.018419608 -0.0069185444 0.08971404 -0.09524849
0000f0 eb dd aa bb fe 56 c3 bd e0 21 08 3d ec b0 36 bd
       -0.005214443 -0.09538077 0.03323543 -0.04460232
000100 ad c4 e3 3c 0c 2b 41 bd 00 49 9e 3d 17 7c a5 bd
       0.027803743 -0.047160193 0.077287674 -0.08080309
000110 bb 89 a8 bd 0d c4 af bd a4 6e 9e 3d c1 f7 8f 3c
       -0.08229395 -0.085823156 0.07735947 0.017574193
000120 62 0b c5 3d 3e a8 f0 bd 3b 02 13 be c0 4c 93 bd
       0.09621312 -0.1175084 -0.1435632 -0.07192373
000130 eb 04 79 bd 4f 06 7e 3d 12 77 6c 3d 58 32 e7 3d
       -0.060795706 0.062017735 0.05773074 0.11288899
000140 a3 e9 2d bd a2 7a 81 bd 01 80 99 3d ef ca 02 bd
       -0.04245914 -0.063222185 0.07495118 -0.031931814
000150 d5 0d af 3d df 8b 46 bc 9d 1d a3 3d 5a b7 9f bd
       0.0854756 -0.012118309 0.07964633 -0.077986434
000160 e1 a9 3a bd 19 26 47 3d 76 9b 26 3d 98 c6 73 bc
       -0.045572165 0.048620317 0.040675603 -0.014878891
000170 d0 05 a7 3d 0a d1 bc 3d ae f5 8d bd 14 ea 35 bd
       0.081554055 0.092195585 -0.06931625 -0.044412687
000180 f9 54 f8 3d 2b 6b ce bc 00 a7 d6 bc d9 65 c5 bd
       0.12125582 -0.025197586 -0.026202679 -0.096385665
000190 f9 81 76 bd f1 aa 09 3d 3b ca 46 bc 1f 1c a3 bd
       -0.060182545 0.033610288 -0.012133176 -0.07964348
0001a0 66 ec e1 3b 35 1c 97 bd 0e e4 c0 bd c9 8f 7c bd
       0.006894636 -0.07378427 -0.09418498 -0.06166056
0001b0 7f 1d c9 bd 6b 9f 90 bd 0a d2 f2 3d 41 96 c1 3c
       -0.09820079 -0.070616566 0.11856468 0.023631217
0001c0 a1 5b 11 3d 8a 1c db bd e4 b6 99 bd 0c a9 0c bd
       0.035487775 -0.10698803 -0.07505587 -0.034340903
0001d0 7d 54 aa 3c 23 62 ce bd ef 19 45 bd 83 18 8a bd
       0.02079224 -0.10077312 -0.048120435 -0.067429565
0001e0 74 a3 a0 3b 16 07 23 bd 23 d5 da bb b5 e0 9b bd
       0.0049022976 -0.03980168 -0.00667824 -0.07611219
0001f0 ec ff 9d bd 8a c6 6f bd 3d c7 04 bd 40 8a af bd
       -0.07714829 -0.05853895 -0.03241657 -0.08571291
000200 dc 21 d4 3d 7a c0 7b bc 55 c5 da 3d 27 4e 2a 3d
       0.10358021 -0.015365714 0.10682169 0.041578438
000210 1a ab c0 bd 78 b8 ad 3d 2e 09 d5 bc 86 bc 1e bd
       -0.09407635 0.0848245 -0.026005354 -0.03875401
000220 0a de bc bd e1 b6 e7 bd 00 75 12 3d ac 34 b1 bc
       -0.09222038 -0.11314178 0.03575611 -0.021631561
000230 cf 40 53 3d e0 64 b8 bd 1e 3c b5 3d c3 d3 a5 bd
       0.05157548 -0.090036154 0.08849357 -0.08097031
000240 13 19 7b bc 6b 4b 02 3d 4d eb 85 3d e4 e3 c6 3d
       -0.015325802 0.031810205 0.06539021 0.097114354
000250 83 73 e1 3d be 20 b0 bd 2e 3c c7 3c c1 b4 5b bd
       0.1100836 -0.08599995 0.024320688 -0.053639177
000260 d3 8b 94 bc f4 16 c1 bd 80 68 bf 3d 52 98 9d bd
       -0.01813308 -0.09428206 0.09346104 -0.076950684
000270 8e 90 8f 3d 86 93 29 3d 73 28 f7 3c 9b 65 9e bd
       0.070099935 0.041400455 0.030170655 -0.077342235
000280 ce 27 f3 3d a0 48 24 3d 55 da a0 3c 66 4a de bd
       0.118728265 0.040108323 0.019635359 -0.10854034
000290 a0 9f 04 3d bc 08 ae bb d2 a1 21 bd ed c6 d8 3d
       0.032378793 -0.0053111 -0.039460965 0.10584817
0002a0 8b 61 a0 3c c9 41 a7 bd 71 94 76 bd a6 e3 ad bb
       0.019577762 -0.081668444 -0.06020016 -0.005306679
0002b0 2a 77 75 3d fd 48 34 bd cd 40 b4 bd b3 cc fb bc
       0.059928097 -0.04401492 -0.08801422 -0.030737257
0002c0 40 4e 9d bd 47 2e 47 3d 37 b2 c1 3d 81 a2 db bd
       -0.07680941 0.048628118 0.0945782 -0.107243545
0002d0 77 a6 3f 3d 3b 4e a3 3d c4 1e 08 3d 93 69 16 bd
       0.046789613 0.07973906 0.033232465 -0.036721777
0002e0 80 50 6b 3d fe 5a ad 3d 85 9b 8a 3d 57 e4 a7 bb
       0.057449818 0.08464621 0.06767944 -0.005123656
0002f0 a3 ce d5 bc 34 ca 04 3c 0d 79 1a 3b de 63 35 bc
       -0.026099509 0.00810485 0.0023570687 -0.0110711735
000300 3a 3b b9 3d a7 0a d5 3d fa c2 8f bc 3d 9e 84 bc
       0.090445 0.104024224 -0.017549027 -0.016188735
000310 51 11 51 3c c8 7f 2a ba 36 09 c9 3c 48 19 b6 3c
       0.012760476 -0.0006504026 0.024540525 0.022228852
000320 4a c2 9e bd 3a 9f 87 bc 69 e9 f4 3d e3 56 81 3d
       -0.077519014 -0.016555417 0.11958582 0.063154005
000330 e8 13 dc 3b 42 af 04 bd bc df 10 bd c5 88 a1 bd
       0.00671624 -0.0323937 -0.03536962 -0.07887415
000340 f2 cb c2 bc 9a 66 32 3d ee d0 e7 3d ed 44 bb 3d
       -0.02377889 0.04355488 0.11319147 0.09144006
000350 89 79 9d bd bf 8f 6f bd 5f 82 94 bc c2 20 17 3e
       -0.076891966 -0.058486696 -0.018128572 0.1475859
000360 7b 70 53 3d f4 fa 8d bb 82 c3 6b 3d 4b e2 45 bd
       0.05162094 -0.0043328945 0.057559498 -0.048311513
000370 25 80 67 bd cc fa d2 3d 16 33 27 bd 8e 5b c7 bc
       -0.056518693 0.10301742 -0.040820204 -0.024335649
000380 d5 4c 00 be 10 83 c1 3d 3d b8 d3 3d 8a 9c 65 3d
       -0.12529309 0.09448826 0.10337875 0.05605749
000390 9b b6 88 bd 73 a5 cd bd ad 64 a2 bd 0c 64 cb 3d
       -0.06675454 -0.100413226 -0.07929359 0.09931192
0003a0 35 00 89 3d 6d b5 de 3d bb 78 93 3d 3a 71 2a 3d
       0.066894926 0.10874448 0.07200762 0.041611888
0003b0 5a bb 13 3c e8 c6 a2 bd 0e 7f b8 bd 69 7c c9 bd
       0.009016836 -0.079480946 -0.09008609 -0.098381825
0003c0 2a 30 77 3d a2 f6 3d bd e0 b9 6e bc 73 2b 67 bd
       0.060348667 -0.046377786 -0.014570683 -0.05643792
0003d0 59 6b 1c bc cb ce 8a bd ae c5 83 bd b0 64 46 3d
       -0.009547078 -0.06777724 -0.06434189 0.048435867
0003e0 ae b8 b6 bc a7 7d ad 3d cf c4 cc bc 7e d6 96 bd
       -0.022304859 0.08471232 -0.02499619 -0.0736513
0003f0 fc ef 3c bc c8 b3 43 bd a9 80 e6 bc 6a 41 cd bd
       -0.011531826 -0.047778875 -0.028137522 -0.10022242

conv1.bias f4 [64]
000000 2b 1b b6 bd f8 1e 6d 3d 4c c2 84 bd fe f7 1a 3d
       -0.08891901 0.057890862 -0.06482372 0.03783416
000010 05 05 a4 3d 8e 57 d1 3b 5c 3c 40 3d 6a b2 d3 3d
       0.0800877 0.006388611 0.046932563 0.10336764
000020 95 cd ff bc 6e 76 b8 3d 85 73 b4 bd c6 f3 ea 3d
       -0.031225959 0.09006964 -0.08811096 0.11472277
000030 5d 33 2f bd 61 39 65 bc c1 fd 8a 3d d6 01 6d 3c
       -0.042773593 -0.013990731 0.06786681 0.01446577
000040 c3 5a f5 3d b6 29 37 bd f7 0f 78 bd 0e ec e2 3d
       0.11980202 -0.044717513 -0.0605621 0.1108018
000050 3e ee fd ba 99 a2 9b 3d 86 52 fb 3d da 44 d8 3d
       -0.001937337 0.075993724 0.122715995 0.105600074
000060 3a 72 0d bd 38 a5 75 bc 5c 0b e6 bd e5 05 76 bd
       -0.034532763 -0.0149930045 -0.112326354 -0.060064215
000070 70 51 fc 3c 03 67 aa bd 9b 6f 4f 3d e6 f6 90 3d
       0.030800551 -0.08320429 0.050643545 0.07078342
000080 60 58 ab bc 23 d7 09 3c 85 ad 10 3e b2 a1 51 bc
       -0.020916164 0.008413109 0.14128692 -0.012794899
000090 d7 19 02 3e cd fc d3 3d 67 b0 1e bc a5 6e b9 bd
       0.1270517 0.10350952 -0.009685612 -0.09054307
0000a0 26 2b ec 3d 01 24 7f bd d0 ae fe 3d e2 48 7e bd
       0.115316674 -0.062290195 0.124356866 -0.062081225
0000b0 3f ec 66 3c 91 84 f3 3c c1 b7 17 bd 49 7a ad 3d
       0.014094411 0.029726299 -0.037040476 0.0847059
0000c0 a5 2d c3 bd 2f f2 45 bd e8 e0 a6 bc 25 8d c3 3d
       -0.095301904 -0.048326667 -0.020370916 0.095484056
0000d0 c5 6f 80 3d 51 2f 8b 3d e1 bd 9b 3d bc ce cf 3d
       0.06271318 0.06796134 0.07604576 0.10146853
0000e0 1f dd 97 bc e3 24 e1 bc 9d 32 ee bc 81 e4 24 3d
       -0.018538056 -0.02748341 -0.029076869 0.04025698
0000f0 6d fe 06 bd 8a d0 5a 3d 3f 1a 49 3d 83 42 1d 3c
       -0.032957483 0.053421535 0.049097296 0.009598377

conv2.weight f4 [64, 64, 5, 5]
000000 0d 04 ff 3b c2 ee ef bc e6 68 b4 bc 01 c6 39 bd
       0.0077824653 -0.029288653 -0.022022676 -0.045354847
000010 87 64 73 bd 59 96 4e bc 95 78 1c bd 23 65 00 bd
       -0.059422042 -0.012609088 -0.038200933 -0.03134645
000020 c9 25 2b bd 59 2e 43 bd 55 b6 64 bd b2 71 a6 bd
       -0.04178408 -0.047651622 -0.055837948 -0.081271544
000030 50 3d 65 bd 10 41 25 bd 1b 48 74 bd 9e 6a 28 bd
       -0.055966675 -0.04034525 -0.059639078 -0.041117303
000040 86 20 1a bd e3 f4 89 bd db fc 44 bd 8c 50 97 bd
       -0.037628673 -0.067361616 -0.048092704 -0.0738841
000050 0d d0 3d bd 0d ba 5a bd 00 70 4d bd 98 21 25 bd
       -0.04634099 -0.053400088 -0.05015564 -0.04031524
000060 ea 81 01 bd 1b 53 bd bb 13 aa 1f 3b b3 a1 4e 3c
       -0.031618036 -0.005777729 0.0024362847 0.012611794
000070 64 f5 0a bb b1 e9 b6 3a fa 5f c4 3c e1 06 e9 ba
       -0.0021203393 0.0013955144 0.023971546 -0.0017778539
000080 59 bb 7c 3c ba cc b4 3c 5c ee fc 3b 8c 0f 69 3a
       0.015425527 0.022070277 0.0077188443 0.00088905613
000090 ca 9f 51 bc 4d 15 85 bc 6c 87 a9 bb 81 bb ad 3b
       -0.012794444 -0.016245509 -0.0051736142 0.005301893
0000a0 29 21 a7 3c ba cb 57 3b bf 4d b3 3c a0 fe 0f bc
       0.020401554 0.0032927827 0.021887658 -0.008788735
0000b0 4a d0 85 3b 5d 80 87 bb 94 f7 58 3c d2 47 cc 3c
       0.004083668 -0.004135175 0.013242621 0.02493659
0000c0 cb 0d 3e 3c 80 c2 2d 3b eb 1e c4 bd 54 6f d7 bd
       0.011599968 0.0026513636 -0.0957621 -0.10519281
0000d0 21 0c c2 bd cc 35 c4 bd 22 7d 61 bd 04 90 bb bd
       -0.0947497 -0.095805734 -0.055050977 -0.09158328
0000e0 58 37 a5 bd ab a0 ba bd 34 db 95 bd 51 51 38 bd
       -0.080671966 -0.09112676 -0.073172 -0.044999424
0000f0 71 9e 90 bd 2c 38 97 bd 12 3c 43 bd 7e d2 20 bd
       -0.0706147 -0.07383761 -0.04766471 -0.03926324
000100 e9 a1 21 bd 8f 0d af bd 69 a7 78 bd 69 7a 9d bd
       -0.03946105 -0.08547508 -0.06070653 -0.076893635
000110 05 f5 95 bd e6 54 16 bd 4e 63 9f bd bf 72 8c bd
       -0.073221244 -0.03670206 -0.07782613 -0.068578236
000120 54 6e 2c bd be 01 ff bc 37 0d a0 bd cd 51 94 bc
       -0.042097405 -0.03112876 -0.078150205 -0.018105412
000130 b1 ff 7c bc 37 99 35 3c bf 44 ac 3b 19 b4 e3 3b
       -0.015441821 0.011083893 0.0052572186 0.0069489595
000140 58 d8 46 3c 3b f3 62 bc 32 4b 05 3c 8a 76 48 bc
       0.012136541 -0.013851936 0.008135604 -0.012235293
000150 63 10 0c bc e8 dc 4e bc 1e 0c 88 3a 50 fc 88 ba
       -0.008548829 -0.01262591 0.0010379588 -0.0010451172
000160 91 e2 84 bc 8e b5 10 3c d8 64 33 bc 06 18 c4 ba
       -0.016221317 0.0088323485 -0.010949336 -0.0014960773
000170 d3 de 48 3c 21 01 07 3b 7a de ab bc f3 bc 62 bc
       0.012260157 0.0020600038 -0.020980109 -0.013838994
000180 f5 3b 68 ba 8b b1 08 bc 87 8c 04 bc b8 87 cb 3b
       -0.0008859032 -0.008343111 -0.008090145 0.0062112473
000190 5b ab 77 3c bc 5c 37 bc 2d 52 a8 bc bc 31 bd 3c
       0.015116538 -0.011191543 -0.020546997 0.023095004
0001a0 4b 0f 89 bb c4 c8 24 bb 36 cd 75 bc 5d 48 c6 3c
       -0.0041827313 -0.002514408 -0.015002539 0.024204427
0001b0 e0 81 4b 3c ed b6 8b bc 10 74 76 bc 13 1c c0 3c
       0.012421101 -0.017055 -0.01504232 0.023450887
0001c0 ae f9 10 3c 73 4a b6 bb c8 86 c0 bc 56 02 ca 3c
       0.008848591 -0.0055630743 -0.023501769 0.024659317
0001d0 2b 5c 4d bc 89 c5 53 3c 41 45 bc bc 7e 7e b8 bc
       -0.012534182 0.012925514 -0.022982242 -0.022521254
0001e0 03 6f 53 bc 8d f3 ee 3c 73 02 d1 3c ee a4 97 bc
       -0.012904885 0.029168868 0.025513863 -0.018511262
0001f0 36 7d ac 3c f0 d5 7c bc 8b 6c 2d bc 77 01 e5 3c
       0.021055799 -0.015431866 -0.010584961 0.0279548
000200 3b ef 2f 3d 7f f2 56 3d ae 9e 1c 3b 8c cb 0b 3d
       0.042952757 0.052477356 0.0023898291 0.034129664
000210 07 0e 1d bc 9d d9 0d 3d aa 82 d2 3c a2 fa c2 3a
       -0.009585864 0.03463136 0.025697071 0.001487572
000220 27 a5 f2 3c 86 f4 96 bb 1c 5a 07 3d b4 94 dc 3c
       0.029619766 -0.004606786 0.03304492 0.026926376
000230 dd 25 a3 3c 98 7f 7e 3c 46 da f6 3c 76 2e 48 3d
       0.019915516 0.01553335 0.030133378 0.048872434
000240 cb c4 c6 3c 6f 00 7f bc 64 68 3d 3d 21 f8 2c 3c
       0.02426376 -0.015564068 0.046242133 0.010557205
000250 37 b1 0f 3d d9 7a 53 3d 33 24 22 bc c2 fe 2e 3c
       0.035081115 0.05163083 -0.009896326 0.010680856
000260 d9 59 cd 3b 21 f4 66 bc fd 93 4e 3a 88 43 fa bb
       0.006266814 -0.014096291 0.00078803283 -0.007637445
000270 7c c9 54 3c ef c6 ab 3b 3a 09 df bc 60 01 a7 bb
       0.012987491 0.0052422206 -0.02722608 -0.0050965995
000280 0e ee 06 3a 03 ff 3f 3b ba 9b 22 bc cf de f6 bb
       0.0005147167 0.0029296286 -0.009924823 -0.007533885
000290 2a b7 9c bc 20 1d 57 bc da e9 0c bd 58 ef 48 37
       -0.019130308 -0.013129503 -0.034402706 1.19766555e-05
0002a0 5f 0e c7 ba e6 33 f1 bc 87 00 ae bc 46 59 86 3c
       -0.0015186778 -0.029443692 -0.021240486 0.01639999
0002b0 eb 60 ee bc 9c ab 00 3c 69 7c d9 bc b3 a5 c0 bb
       -0.029098948 0.007853415 -0.026548581 -0.005879128
0002c0 bd c8 0f 3b f9 33 15 3d 67 f0 2d 3c 81 6f 28 3d
       0.0021939718 0.036426518 0.010616398 0.041121963
0002d0 15 60 e0 3b f6 f5 ea 3c ec 0b af 3c aa d1 d1 3c
       0.0068473914 0.028681736 0.02136799 0.02561267
0002e0 50 28 0f 3d 67 07 3e bc 39 2d cb bb b1 3d 11 3c
       0.034950554 -0.011598445 -0.0062004593 0.008864806
0002f0 50 f2 ce 3c 01 98 67 3a 19 24 b0 bc 17 8a 84 bc
       0.025262028 0.0008834601 -0.021501588 -0.016179128
000300 39 9c 08 bc b1 c7 0e 3c 5a 55 0d 3c 7b 7c 12 bc
       -0.008338028 0.008714602 0.008626306 -0.008940811
000310 2b 50 05 bc 3e d8 19 3c 70 b9 8f bc 40 83 08 3d
       -0.008136789 0.009389935 -0.017544478 0.033328295
000320 72 a3 2f 3c ae 3e c2 3c ab bb d5 3c fe de 0b 3c
       0.010720121 0.023711529 0.026090464 0.008537052
000330 86 1d 19 3d 69 28 83 3c f7 fe be 3c 21 a1 53 bb
       0.03738167 0.01601048 0.023314936 -0.0032292085
000340 cd 9f c5 3c 87 ac f1 3c 61 dd a0 3c 5c b1 97 3c
       0.02412405 0.029501213 0.019636812 0.018517189
000350 fa 91 1e 3d 10 04 23 3d 75 d9 1c 3d 73 fa 8e 3c
       0.038713433 0.039798796 0.03829332 0.017453408
000360 0f cd f6 3c e9 07 cb 3b 9b 9c 95 3b 97 d4 a9 3c
       0.030127076 0.0061960113 0.004565788 0.020731254
000370 ac a7 ca 3c 61 cf 36 3c 0c d9 14 3b b5 d4 08 3d
       0.024738155 0.011157841 0.0022712378 0.03340598
000380 ba 23 07 3d 10 0f 01 bd c5 11 08 bc 94 2c 1b bd
       0.032993056 -0.031508505 -0.008305018 -0.03788431
000390 25 24 40 ba b3 1d b9 b9 f9 66 ad bc 0e 28 78 b8
       -0.00073296047 -0.00035308077 -0.021167265 -5.916511e-05
0003a0 1f 29 09 bd 1e ef fb bc 76 7a 03 3c d4 45 bc bc
       -0.03348648 -0.030753668 0.008024802 -0.022982515
0003b0 2d 96 12 bd d9 1a a3 bc 2a 8d d2 bc 04 4a 8a 3b
       -0.03578775 -0.019910263 -0.025702078 0.004220249
0003c0 76 51 a2 3b d5 fe 9a bc bd 4d b0 bc c9 2b 88 bc
       0.0049535586 -0.018920342 -0.021521444 -0.01662244
0003d0 1a c8 19 bc 14 09 b5 bb 86 e0 a7 bc 3f 4c 84 bb
       -0.009386087 -0.005524764 -0.020492803 -0.0040374096
0003e0 ec 61 3d bb 5f ea de bb f0 fb 84 3d 36 4f 53 3d
       -0.0028897477 -0.0068028416 0.06493366 0.051589213
0003f0 3a ab 6a 3d e3 50 87 3d ad 38 69 3d 64 8f 53 3d
       0.0572922 0.06607225 0.056938816 0.05165042

conv2.bias f4 [64]
000000 56 60 46 3c d8 75 5b ba de a9 10 3d a6 32 4d bb
       0.012107929 -0.0008371747 0.035318248 -0.0031310706
000010 18 10 94 3c 19 26 58 bb 67 9f 13 bc 4a b3 ce 3b
       0.01807408 -0.0032981692 -0.009010172 0.006307994
000020 87 13 83 3b 56 32 62 3a 6f cf 39 3c dd e6 09 3c
       0.0040001306 0.00086287165 0.01134096 0.0084168585
000030 78 43 43 3c 1e be 0a 3d 10 82 c5 3c ea 06 a1 bc
       0.011917941 0.033872716 0.02410987 -0.019656617
000040 cd 3f a4 bc 20 64 e5 3c 8f 0a 9d bb 11 42 f3 3c
       -0.020049954 0.028001845 -0.0047925184 0.029694589
000050 7a 54 a3 3c 84 58 0b 3d e2 02 ed bc 2d 0c eb 3b
       0.019937743 0.034019962 -0.028932039 0.0071730823
000060 e4 79 da 3c 33 95 a0 bb 08 f1 27 3d 46 66 9a bc
       0.02666945 -0.0049005984 0.04100135 -0.018847596
000070 94 64 0f 3a de 0f 57 3c 17 2e 4e bc cd d4 67 3c
       0.00054700044 0.013126342 -0.012584231 0.014149857
000080 8b 51 a2 bc 77 3a 82 3b 31 10 e7 3b 1d 50 55 3b
       -0.019814273 0.0039742547 0.0070514907 0.0032548972
000090 70 24 07 bd 3e d8 4d bb 4f e6 44 3d a4 d2 92 3c
       -0.032993734 -0.0031409408 0.048071202 0.017922707
0000a0 a8 60 4f 3c b5 ad 58 bc ea 6a 00 bc fb ae 32 bc
       0.012657322 -0.013225009 -0.00783799 -0.010905976
0000b0 58 dc f7 3c ec 1f f6 3c 0d db 80 3c d8 7b 1f bc
       0.030256435 0.030044518 0.015729452 -0.0097341165
0000c0 0f 08 71 3b ab d0 7f bc a8 7d 71 3c d7 c6 41 3c
       0.0036778485 -0.015613715 0.014739431 0.011827192
0000d0 22 a0 98 bc 07 bf 4b bc bb c5 34 3d a6 63 87 3c
       -0.018631045 -0.012435681 0.044133883 0.016527008
0000e0 6d 2c fa ba a4 92 8f ba c0 c2 9b bc 06 52 71 3c
       -0.0019086726 -0.0010953736 -0.019013762 0.014729029
0000f0 43 3d 5c 3b 19 a3 b8 bc 19 4e a4 39 21 12 f6 3c
       0.003360585 -0.022538709 0.00031338705 0.030037941

conv3.weight f4 [5, 64, 5, 5]
000000 9d a3 29 3d 8c 6a ef 3c 65 da f3 3c d6 4f 9e 3c
       0.0414158 0.02922561 0.029767225 0.019325178
000010 1c ae d9 3c d2 97 0a 3d 69 92 92 b9 5a 2d c8 3c
       0.02657228 0.033836193 -0.00027956374 0.024435688
000020 9f 7f 33 3d d4 8c f2 3c f5 d1 d4 3c 46 9b 94 ba
       0.04382288 0.029608168 0.025979022 -0.0011337779
000030 7f 2e 0e 3c 73 c2 24 3d 5a f8 f8 3c 72 25 5c 3c
       0.008678078 0.040224504 0.03039186 0.013436662
000040 8c 6d 86 3c a0 6b 3c 3d 90 e5 ec 3c b8 42 57 3d
       0.016409658 0.046001077 0.028918058 0.052553862
000050 51 c9 21 3d d1 a4 71 3d f9 5a 3d 3d cc 1c 44 3d
       0.03949863 0.05899507 0.046229336 0.047879025
000060 39 54 69 3d 52 43 5b bd ae f8 58 bd 9d c2 05 bd
       0.056965087 -0.053531 -0.052971534 -0.0326563
000070 51 2b d8 bc 73 a6 10 bd fd eb e3 bc 20 9b cf 3c
       -0.026387842 -0.03531499 -0.027822489 0.025342524
000080 32 af 8c 3c bc 30 78 bb 7c 16 63 bc 4c e6 bc bc
       0.017173383 -0.0037870845 -0.013860341 -0.023059033
000090 64 9c a9 b9 37 db 2d 3b 9e ea c3 3b cc 38 95 3c
       -0.00032350712 0.0026528367 0.0059788963 0.01821556
0000a0 aa 23 96 bb 6d d9 28 bc 31 dd 07 3c 2a ba 30 bc
       -0.004581888 -0.010305745 0.008292482 -0.0107865725
0000b0 1b 3f b8 bc 5d 45 02 bc 88 37 79 3c 0e 43 90 bb
       -0.022491029 -0.007951108 0.015210994 -0.004402525
0000c0 fa cb d8 3b e1 5c 47 bb 7c 4e 25 3c 9c 30 f4 3b
       0.006616113 -0.003042035 0.010089513 0.0074520838
0000d0 7d a6 7d bc 9e 9b 81 3c ab cd 28 bc 02 74 5e bb
       -0.015481588 0.015821274 -0.010302941 -0.0033943658
0000e0 32 9c bf 3b b1 d7 9d ba 0f ab da bc b1 52 8b 3c
       0.0058474774 -0.001204243 -0.026692895 0.017007204
0000f0 b1 ee da bc 46 f4 c9 bc d1 2c b4 bc 5e cf e0 bb
       -0.026725145 -0.024652611 -0.021994026 -0.0068606576
000100 4e 9c e8 3a 6c 9f 71 bc f5 50 e9 3b 26 86 9c 3b
       0.0017746778 -0.014747482 0.0071202465 0.004776734
000110 44 c9 95 bc bb b6 3f bc e7 8d ab bc 37 ba b7 bc
       -0.018284447 -0.011701281 -0.020941688 -0.022427661
000120 f0 50 e1 3b 16 c3 4f bc c6 20 b8 bc 3a de 8a 3a
       0.0068761036 -0.012680789 -0.022476565 0.0010594793
000130 4e f1 87 bc 88 e1 c6 bc b8 c7 43 bc fa dc 72 3c
       -0.016594555 -0.024277464 -0.011949472 0.014823193
000140 86 2c 99 3c 76 e3 86 3b 57 00 01 b9 3d 0c a3 bc
       0.018697988 0.004116471 -0.00012302525 -0.019903297
000150 cb 46 43 3b e9 0a 68 bc fb 34 9c 3c fd e2 8a bb
       0.0029796835 -0.014162757 0.019068232 -0.004238485
000160 eb 70 34 3c 01 fe 17 3c 51 d2 23 bc c2 c5 76 bc
       0.01101325 0.009276868 -0.009998874 -0.015061798
000170 e0 57 87 bb 21 bb 1d 3c db a9 a0 bb ed 0e 98 bc
       -0.0041303486 0.009627135 -0.004903061 -0.018561805
000180 c3 82 04 3c 0f 83 3a 3c b8 39 dd ba d8 40 6d 3c
       0.008087817 0.011383786 -0.0016878163 0.014480792
000190 fb a0 fe b9 00 22 c8 ba af af 0a bd 9c be 0e bd
       -0.00048566595 -0.0015268922 -0.03385895 -0.034849748
0001a0 ca 3b dd bc a3 bc d8 bc ac d6 ea bc 25 33 11 bd
       -0.027006049 -0.026457136 -0.028666817 -0.035449166
0001b0 8b 0f 9d bc 52 1f 2e bc 01 88 f9 bc e8 f0 2f 3c
       -0.01917245 -0.0106275845 -0.03046036 0.010738589
0001c0 fb be 05 bd d2 26 b2 bc ba 27 5a bc 48 5f 57 bc
       -0.032652836 -0.021747027 -0.013315136 -0.013145275
0001d0 b0 d8 d4 bc 8b cc 61 bc bb 7c 8f 3c 41 fd 99 3b
       -0.02598223 -0.013781677 0.01751553 0.0046993797
0001e0 63 02 81 3b d4 ac 67 3c 6a d7 d9 bc 4b d5 75 bc
       0.003937052 0.0141403265 -0.026591975 -0.015004466
0001f0 46 9a 82 3b a6 f1 16 bd 92 b9 5b bc 0b d4 94 3b
       0.003985676 -0.036851548 -0.013410943 0.004541879
000200 b1 64 8b 3b 41 7e 4d 3b 2e 82 24 bc ca 10 f9 bc
       0.0042539467 0.003135577 -0.010040803 -0.030403513
000210 35 01 6e ba 00 50 37 bc cf 76 7a bc d6 ff b9 bc
       -0.00090791594 -0.011188507 -0.015287115 -0.022705
000220 14 39 a3 bb f0 12 57 3c 3f 4d c5 bc fb b3 92 bc
       -0.0049811695 0.013127074 -0.024084685 -0.017908087
000230 a4 1a 4c bc 2f d2 b2 3c ae ea 27 bc c1 70 df bb
       -0.0124575235 0.021828739 -0.010248823 -0.0068188612
000240 b5 0d 49 3c 0b c1 c4 bc 5a a0 2f bc f6 31 4a 3c
       0.012271334 -0.024017831 -0.010719383 0.012341013
000250 b2 c0 6d 3c 59 89 47 3c 74 4e 20 3b c2 fd 66 bc
       0.014511274 0.012178742 0.0024460824 -0.0140985865
000260 b1 16 55 3c 87 c6 b5 bc 1b 27 84 bc 0b a3 cb bc
       0.013005898 -0.022189392 -0.016131928 -0.024858018
000270 44 30 30 3b 06 d8 7e 3b 5c 0e 0e 3c d9 36 e9 bc
       0.0026884237 0.0038886084 0.008670416 -0.028468536
000280 c1 b7 c6 bc ae 4d 1b bd d4 0a 02 bc 82 af 8a bc
       -0.024257543 -0.037915878 -0.007937152 -0.016929392
000290 47 9e c4 bc f0 87 c3 b9 0a 93 6e bb 37 d2 0c 3c
       -0.024001254 -0.0003729458 -0.003640356 0.008595041
0002a0 21 6e 80 bc 7c f4 91 3a a9 a1 24 bd 16 85 0c bd
       -0.015677514 0.0011135484 -0.040193234 -0.03430661
0002b0 93 a3 f2 bc 66 fe ee bc a9 a0 a9 bb 2f 9a 16 bc
       -0.029619014 -0.029174041 -0.005176623 -0.009192034
0002c0 dc 14 a2 bc 6a 71 f4 39 9b ea 7d bb 93 df 0c bd
       -0.019785337 0.00046623807 -0.0038744572 -0.034392904
0002d0 51 75 13 bd 7f 98 3c ba e0 26 83 bc d0 e1 6b bc
       -0.036000554 -0.00071943545 -0.016009748 -0.0143971
0002e0 c6 84 8e bc 43 6c f3 bc 7b fc 62 bc ca 93 16 bd
       -0.017397296 -0.02971471 -0.013854141 -0.036762036
0002f0 ad 9e e8 bc da 79 20 bd 75 fb 01 bd 1d 30 7d bc
       -0.028395975 -0.039178707 -0.03173395 -0.015453366
000300 42 4e 9e bc 68 02 13 bd d6 64 f5 bc 16 0f 90 bc
       -0.019324426 -0.035890967 -0.029955309 -0.017585319
000310 08 55 43 bc 1e 03 67 bc 66 73 86 3a 43 89 d0 bc
       -0.0119221285 -0.014099864 0.001025778 -0.025456076
000320 44 19 cf 3c 60 79 12 bc 4f eb 5f bc 8b 5b 2f bb
       0.025280602 -0.008940071 -0.013666942 -0.0026757445
000330 e9 5d 30 39 b9 a0 69 bc dc 28 c9 3c 61 4d ab bc
       0.00016819652 -0.014259511 0.024555616 -0.02091092
000340 35 8b ea 3c 3b e5 75 bc bf 1c c6 3b 2a 1f 4e 3c
       0.028630832 -0.015008266 0.0060459073 0.012580672
000350 01 52 8e 3b 70 06 6a 3c 9e 8d ea 3c c6 6e 22 bc
       0.0043432717 0.014283761 0.028631981 -0.009914106
000360 1b 20 bd bc 50 2e 8b 3c 4d 7a a9 bb 06 b4 e1 3c
       -0.023086598 0.016989857 -0.00517205 0.027551662
000370 c6 4e 89 bc 24 1e 9d bc 51 1e 9d bc d9 f5 51 3c
       -0.016761195 -0.019179411 -0.019179495 0.012814962
000380 b7 10 e1 bb 11 cf 0f 3d 63 47 eb 3b 5c 61 01 3d
       -0.0068684476 0.035109583 0.007180141 0.03158699
000390 94 5b 74 3c 71 c0 f5 3c 6b f6 d6 3c 72 93 bc 3c
       0.014914412 0.02999899 0.026240548 0.023019526
0003a0 d1 89 e7 b9 8a 48 6c 3c 9a e0 94 3b d8 a1 fc 3b
       -0.00044162435 0.014421592 0.004543376 0.007709723
0003b0 cf ec c0 3c 8c 78 1e bc 9e a9 9c bc d2 ca 81 3c
       0.02355042 -0.009672295 -0.019123849 0.015843783
0003c0 c9 9d fd 3c aa 2c 32 3c 56 06 d0 3b 29 97 68 bc
       0.030959027 0.010874907 0.0063484116 -0.014196196
0003d0 6c e9 94 3b 96 c8 f7 bb 7f 9c df 3c 7e 02 e5 3c
       0.0045444276 -0.0075617535 0.027296303 0.02795529
0003e0 fe 21 64 bc 36 30 ec 3c e3 67 b5 3c 82 58 04 3d
       -0.01392412 0.028831583 0.022144264 0.03231097
0003f0 23 55 20 3c 7e 66 c1 3c 03 04 3e 3c 09 2b b2 3b
       0.009785923 0.023608442 0.011597636 0.005437259

conv3.bias f4 [5]
000000 25 52 94 3a 93 99 96 bc a7 26 02 bd 6c ba 0b 3d
       0.0011315985 -0.018383777 -0.031775143 0.034113333
000010 0a 0f 87 3b
       0.004121666
